GNN/NodeFeatEtaPhi_GraphFeatE/minpt10/saved_models/bestModel_1_ax15minpt10_NNConv_onlyFirst2bj_onlyFirst1p.pt (torch, 189638 bytes, 37 tensors)

classify.0.weight f4 [64, 13]
00000000: 9079 843e 84b1 4d3e 63f3 6f3d 6e50 393e
00000010: 1015 743e 6ce1 f6bd 3efc c53d 5711 ae3e
00000020: d529 743e 0f81 d83d 31bd fdbd fc7a b93d
00000030: d5c5 aebd f04a 1a27 bc6c 2826 2321 d5a6
00000040: fcf0 e526 d0ee 7624 9589 bd27 18b4 29a7
00000050: 0a9b c4a6 ae01 a127 2fe9 2127 4ce0 c9ba
00000060: 730d 8eb6 e186 c2b5 363d 93be 10c6 43bd
00000070: d3a4 85be c42a a3be 5d7f 3ebe 3ea5 c9be
00000080: ea6b 5ebd 3146 903c 41d4 87bd fe88 53be
00000090: 195e af3d 8741 02be f3c4 0bbb b29c 1380
000000a0: 793b 0080 11ea d72f 8785 a3ab a4d1 b2a9
000000b0: 6b39 31a7 c6e0 3b97 d926 6099 e023 1680
000000c0: 2a29 2f9b 124b 72ba 87b9 a239 f499 20b6
000000d0: baf8 9f3c 6fd9 82bd c9a5 4fbe 57b8 11be
000000e0: aaf0 99be 0b14 3d3d 0dcc 85be 48a1 3abe
000000f0: 15fc 82be 8ad0 86bd a09b de3d bbf3 48be
00000100: 2144 4a3d ea4e 133c 1d2c d53d 0b5a 91be
00000110: c260 043e 5bb5 69be 5924 29be 255d d2be
00000120: 6459 85be 0155 9fbe 9ec8 41be 8f9e e83c
00000130: ed2b 23be a730 663e b050 6d3e 3f9b 3e3e
00000140: 1663 2b3e 3eab f03d bcde 153e 9093 bfbd
00000150: 7ff8 433d 406b 883e b656 963e 0995 923e
00000160: f05f 01be 55d7 b63d 0309 bebd 2951 bd3d
00000170: 6c6d 913e ce31 153e 3f1c 043e 63a4 403e
00000180: 0dc1 58bd 0623 be3d 3ed1 a93e 1e15 613e
00000190: 4432 b33e 28de 0dbe bb29 a93d 6f8c e9bd
000001a0: 539d 543e fc2f 44be efd9 a6be f18d 8a3d
000001b0: 4f1b 863e 3521 ba3e 44fb 6f3c 07fa 05be
000001c0: ac5a 1dbf 821e 4dbe d20e 243c 159d 3cbc
000001d0: bbc1 783d 089f 05aa f131 1900 3555 8bba
000001e0: 9e8b 9237 e9c3 28ba 94e2 cdba 3a82 62b5
000001f0: bd3d a0b3 7712 40b7 de9e 9c38 3d1a e33a
00000200: 0c81 8cbc 5cae 38bd 4276 2e80 5169 2800
00000210: c431 1002 ffec 4780 efd9 4680 a69d 3f80
00000220: 3032 3880 de6e 3980 b623 2a80 03bb 3980
00000230: 25b9 dbb7 b312 f6b4 8e1e b1a1 7644 d8be
00000240: 7895 e5bc 38e0 1cbe 7fcc 09bf 4037 d9bd
00000250: f68d e7be 25b3 9bbd 5fc4 86be 2fae 40be
00000260: f53d babe 9a3d aa3d 6cd7 00be 51f1 993d
00000270: 7413 773d 2cc7 aa3e 0ae8 d63d b2ba 853e
00000280: ce55 ac3e 6caf c73d 75f9 b9bb 1994 633e
00000290: 19d6 59be 243c 843e a631 abbd e0ae 7d3d
000002a0: 1974 5bbe 18b4 cb3d 3847 173d 1d59 4cbe
000002b0: 1494 10be 4331 9bbe d5e8 b33d c7dc dbbc
000002c0: a983 813d b244 41be d93a 3f3d 306f f23d
000002d0: a38e 08bf c2aa e33c 47d7 1d00 a856 0e80
000002e0: e507 2080 ef5a 2080 c754 2280 6d57 2080
000002f0: 4f2f 1e80 4659 2080 7139 1f80 8a90 1c80
00000300: 114b d9b0 3979 519e f4ad 1b90 940d ce3b
00000310: 12df a63b ccf0 b33b 5c11 a43b 953c 853b
00000320: cc6d e7bb 269b ab3b c674 8f3b da03 b23b
00000330: c65d b53b 2d25 bfbb 920b acbb a2f9 ba3b
00000340: 4f32 4dbe 9ac2 d7bc 9c72 d0bd e466 94be
00000350: f303 9fbe a801 d0bb 374d 47bd 963d 0d3c
00000360: 5e05 85be d017 97be b067 083e d93a eebd
00000370: 6abc b7be 61b3 793c 5b53 ba3e eafe 4e3d
00000380: c6af 273e b9d5 67bd 6f17 543e 727f 3abd
00000390: 8e84 023e 96c6 0c3e 3d0e ec3d 6379 a0bd
000003a0: 05a2 bdbe 6448 323e afde 8fbd c357 e83e
000003b0: fdb2 093e ec6e f93d a573 cc3c 6ba0 063e
000003c0: 26da 0c3e 5f0e 653d 8e34 b03e d998 02be
000003d0: 11bf 6fbd 40d6 69be 61ca 243e b8d7 393e
000003e0: 807b 7f3e 73a8 903e 2e35 4d3e b6c5 1d3e
000003f0: bef5 f0bd d86b ca3d 9794 683e 6459 7a3e
0.25873995 0.20087248 0.05858172 0.18097088 0.2383616 -0.120547146 0.09667252 0.33997604
0.23844083 0.10571491 -0.12389601 0.090566605 -0.08533827 2.1412417e-15 5.843407e-16 -1.4788826e-15
1.5955386e-15 5.354503e-17 5.2607205e-15 -2.355109e-15 -1.3642255e-15 4.4688298e-15 2.2469647e-15 -0.0015401929
-4.2334955e-06 -1.4493381e-06 -0.28757638 -0.04779631 -0.26102313 -0.31868565 -0.18603273 -0.39383882
-0.054302134 0.017611595 -0.06632281 -0.20657727 0.085628696 -0.12720309 -0.0021327108 -1.801086e-39
-2.1335e-41 3.9274586e-10 -1.1618908e-12 -7.941155e-14 -2.459481e-15 -6.0706663e-25 -1.1588374e-23 -2.03325e-39
-1.4488962e-22 -0.0009242754 0.00031037276 -2.393147e-06 0.019527782 -0.063891284 -0.20278086 -0.14230476
-0.30066425 0.046161693 -0.2613224 -0.18225586 -0.25582948 -0.065827444 0.10869527 -0.19624226
0.04938138 0.008990983 0.104088046 -0.2838901 0.12927535 -0.22823088 -0.16517772 -0.4108669
-0.26044762 -0.3111954 -0.18924186 0.02839592 -0.15934725 0.22479497 0.23175311 0.18613909
0.16737017 0.11751412 0.14635748 -0.09354317 0.047844406 0.26644325 0.2936303 0.2862933
-0.12634254 0.0892779 -0.092790626 0.09243996 0.28403795 0.1456978 0.129014 0.18812709
-0.052918483 0.09284024 0.33167452 0.21980712 0.34999287 -0.13854277 0.082599126 -0.11403739
0.2076314 -0.1915893 -0.32588145 0.067653544 0.2619271 0.3635346 0.014647309 -0.13083659
-0.6146648 -0.20031169 0.010013299 -0.011512061 0.06073163 -1.1867948e-13 2.313803e-39 -0.0010630252
1.746957e-05 -0.00064378843 -0.0015707784 -8.4381065e-07 -7.461811e-08 -1.1448391e-05 7.468251e-05 0.0017326545
-0.017151378 -0.045088157 -4.266856e-39 3.7112e-39 1.0593731e-37 -6.605338e-39 -6.506665e-39 -5.84219e-39
-5.160792e-39 -5.274395e-39 -3.869902e-39 -5.30171e-39 -2.6193049e-05 -4.5834676e-07 -1.2002074e-18 -0.42239732
-0.028025374 -0.15319908 -0.5382766 -0.10606241 -0.45225495 -0.076025285 -0.26321694 -0.18816446
-0.36375394 0.08312531 -0.12582177 0.075167306 0.060321286 0.3335508 0.10493477 0.26119
0.33659214 0.09750256 -0.0056754895 0.22224464 -0.21273078 0.25827134 -0.08359079 0.061934352
-0.21431006 0.099464595 0.036933154 -0.19955869 -0.14118987 -0.3031102 0.087846436 -0.026838673
0.0632394 -0.18873861 0.04668698 0.118376136 -0.53342646 0.027791385 2.740456e-39 -1.316783e-39
-2.941568e-39 -2.971357e-39 -3.152819e-39 -2.970098e-39 -2.772036e-39 -2.970761e-39 -2.867506e-39 -2.623245e-39
-1.5810163e-09 -1.1089436e-20 -3.070237e-29 0.0062882397 0.00509251 0.0054913517 0.005006952 0.00406606
-0.0070626494 0.005237001 0.004377934 0.005432588 0.0055348603 -0.005833289 -0.0052504027 0.005706028
-0.20038722 -0.02633791 -0.1017811 -0.2898475 -0.310577 -0.0063478537 -0.048657622 0.00862064
-0.25980657 -0.29510355 0.13320804 -0.11632318 -0.35885936 0.015240521 0.3639172 0.050536074
0.16375646 -0.056600306 0.20712064 -0.045531698 0.12745878 0.1374763 0.11526153 -0.07835653
-0.37037674 0.17410427 -0.070248954 0.45379457 0.13447185 0.1217936 0.024957487 0.13147132
0.13755092 0.05592191 0.34415096 -0.12753619 -0.058531824 -0.22835636 0.16092826 0.18148696
0.24949455 0.28253517 0.20039818 0.15407452 -0.117656216 0.09883851 0.22712933 0.24448162

classify.0.bias f4 [64]
00000000: 4398 1a3f 62bb 25a6 acb4 59bc b2a5 1c00
00000010: 889e 0fbe 9ead ddbd a6c3 1e3f 298a 163f
00000020: 8b8a 083c 5f6e 8991 3fe1 0f80 dcea d5bc
00000030: 8a07 5c3e 0121 56bd 574f 1600 5cb4 9a3b
00000040: f83f f6bc a4c3 f13d 4a46 8c3d c2a1 ff3e
00000050: 0743 3780 e464 fc3d 63fe afbd 83d5 2e80
00000060: b2f7 e23e ce9d 113d bf82 33be 5f5e 06bc
00000070: 3250 083f c2b8 a93d 776d bb3e 5f15 e93e
00000080: 198d 0b80 bd94 4b3e c047 372d d361 9ebc
00000090: f6cb 0800 02c1 1680 902f cf3e b9c7 0e3a
000000a0: 6789 0fbd ceb9 929b aed7 1680 9866 1700
000000b0: 0744 299c 7a24 42be 3e79 abbd 2c9c 95bd
000000c0: 01b7 853d 4210 1700 a6b3 413d d714 1600
000000d0: f076 b934 22a2 c63e bf29 4700 4a21 0200
000000e0: 5b92 383c 1393 9e3c 6b70 8abc 6574 f03b
000000f0: b402 773c 041d 16bb d08b abbd 48d6 c0bd
0.6038858 -5.7499826e-16 -0.013287704 2.630834e-39 -0.14025319 -0.108241305 0.62017286 0.58804566
0.0083338125 -2.168281e-28 -1.458336e-39 -0.026112966 0.21487251 -0.05227757 2.048843e-39 0.0047212075
-0.0300598 0.118048936 0.06849344 0.499281 -5.074997e-39 0.12323931 -0.08593442 -4.301026e-39
0.44329602 0.035550885 -0.17530344 -0.008201211 0.5324737 0.08287193 0.36606953 0.45524117
-1.060807e-39 0.19880958 1.0418277e-11 -0.019333756 8.07851e-40 -2.089619e-39 0.40465975 0.0005446631
-0.035043146 -2.4273747e-22 -2.097752e-39 2.14902e-39 -5.6005333e-22 -0.18959227 -0.083727345 -0.07305178
0.06529046 2.118049e-39 0.047290467 2.027857e-39 3.4545474e-07 0.38795573 6.535296e-39 1.95613e-40
0.011265363 0.01935724 -0.016899308 0.007338094 0.015076328 -0.0022905478 -0.083762765 -0.09415871

classify.3.weight f4 [1, 64]
00000000: 8c91 c1be 958b 9daa e1c3 a13d 6126 a4b9
00000010: e8b9 79bd 6b81 49bd 9690 afbe e9ec 9bbe
00000020: 6901 17bd a376 a5bc baf1 ad3a 74c2 be3d
00000030: afd0 b1bd adae 31be a756 e1b3 b60a 2c3a
00000040: a2ce 983d 46bb 933d ea19 4d3d 0aad c2be
00000050: ae39 2a3b df09 59bd 19a3 24bd c7dc 9b2f
00000060: fddb 16be e1de d83c d643 11be 17a6 29bd
00000070: 32aa a8be 2f30 303d c033 f3be 3f85 eabe
00000080: 2417 27bb eafd 1ebd edcd aaab 4025 693d
00000090: 7edc 033c 75fd 813c 8edd eebd 303e f13a
000000a0: 40a1 453d 87bc 18b9 e0cc 2db5 4373 16b4
000000b0: a68a ba9a 5c19 0bbe 3ad5 693d 603d 853d
000000c0: 3f2b 183d f1d3 9c3b 34de 463d fcb1 4cb3
000000d0: dcad f73b 794b 60be 915d 0a3c 4560 d63b
000000e0: e863 1b3d 6034 c7bc abeb 7c3e 6c20 733d
000000f0: 7ae4 af3d 4b3e 03bd fd8c bfbd 22b0 2d3d
-0.37806356 -2.7985657e-13 0.07898689 -0.00031309112 -0.06096831 -0.04919569 -0.34289998 -0.30454186
-0.03686658 -0.020198172 0.0013270893 0.09314433 -0.08682381 -0.1735179 -1.0493141e-07 0.00065628754
0.07461287 0.07213454 0.05007354 -0.38022643 0.0025974321 -0.05298793 -0.040194605 2.8351207e-10
-0.14732356 0.026473464 -0.14186034 -0.04141816 -0.3294235 0.0430147 -0.4750042 -0.45804784
-0.002549597 -0.03881637 -1.2136382e-12 0.05692029 0.008048175 0.015867928 -0.11663352 0.0018405374
0.048249483 -0.00014566082 -6.4745655e-07 -1.401177e-07 -7.7151796e-23 -0.13583893 0.057088114 0.06505847
0.037150618 0.0047860076 0.048551753 -4.7659327e-08 0.0075585674 -0.2190379 0.0084451595 0.006542238
0.037937075 -0.024316967 0.24699275 0.05935709 0.085885 -0.03204183 -0.09353063 0.0424043

lin0.weight f4 [10, 3]
00000000: 4696 de3d e8c1 063f 3ec8 60be 2d9f 02be
00000010: 2b4b f73e 844d 30be fb54 cabe b51c 213e
00000020: 5625 dd3e cdfc c0be 03de 3fbd 4b07 143f
00000030: b2d7 cbbd 3781 c63e 63a8 a73e e4a6 cd3e
00000040: 856d c23c 71d5 143f 1d78 803e 8be4 debe
00000050: 9dcd a9bd 81de 533e 8c84 443e 51ac e53e
00000060: a2ba 8bbe 4412 9c3d 283f b1bd 2190 98be
00000070: d28e c5be 8c22 313e
0.10868506 0.5263963 -0.21951386 -0.12756033 0.48299536 -0.1721707 -0.3951796 0.15733607
0.43192548 -0.37692872 -0.046842586 0.5782363 -0.0995325 0.38770458 0.32745656 0.4016639
0.023733864 0.58138186 0.2509164 -0.4353374 -0.08291171 0.20690347 0.19191188 0.4485803
-0.27290827 0.076206714 -0.08654624 -0.29797462 -0.38585526 0.17298335

lin0.bias f4 [10]
00000000: 7a33 34bf 95cb 063f d4fe d0be 17d3 0abf
00000010: 7653 0cbf 31db 1abf 9325 cb3e 6a36 2b3f
00000020: efc1 013f 0471 b63e
-0.70391047 0.5265439 -0.40819418 -0.5422835 -0.5481485 -0.6049071 0.39677104 0.66879904
0.50686544 0.356331

edge_nn.0.weight f4 [128, 1]
00000000: 771e cdab 32b5 8c3e e0d8 78be ab74 6b3d
00000010: 680b a58a ccce d59e 92a8 46be 1f4c 223e
00000020: a337 13bc 655e 063f 7d18 b43e 1c07 063e
00000030: d306 a292 2163 a03e ec7a 22be 9f5c 763e
00000040: c5cd a5a1 e29b 6e3d 3021 efab ae72 f13e
00000050: d26d 1da8 48f4 8d3e d557 d63e 2052 753e
00000060: 6046 023f 13d1 3bbe 8195 bfbe 1749 13b9
00000070: c4c4 c8b9 bbdc cbbe 936d 0a3f c037 813e
00000080: 2a43 47be a550 1531 4f94 a93e 6687 6ba3
00000090: 03ca 253f 7319 c23e 089a cdbb e9a6 b9bb
000000a0: 070f e33d 9e49 143e 7bf5 453e 0e24 2abc
000000b0: 65ff 013e 3586 e13e deb0 253f 036b 053f
000000c0: 748a 29be 0b01 e03e 04f2 69b2 0f09 3bbe
000000d0: bd72 758c dc5a 1dbf 65dd b03b 8a07 3b80
000000e0: 6d78 0cab edc5 8691 3e61 7fbe 4fcd 6999
000000f0: 3102 debb 9513 023f 46cb fa3e b199 aabc
00000100: 01d8 153e 8794 f13e 0511 8abb 58cc c63e
00000110: 07b9 5c3e 3591 be3e b687 6c3d 4878 50be
00000120: ca59 c58a dcdf 8ea7 c418 213f a107 b0b1
00000130: 25ef fabe 9daa c93e 7c05 1bad 613f d53e
00000140: cb77 8baa 5ad1 763d dd7b 02b7 8760 a2b5
00000150: 3e6d aab1 4f57 ec3c ee64 633e 8466 5bb6
00000160: 0cca 70be c422 2b00 64c0 673e 26c3 233d
00000170: 0af6 91bd 5b55 11aa a400 f7af 02a8 40bc
00000180: c448 263e b947 ad3e e12d 4c3e a80d 023f
00000190: c926 913e d7b6 61be e561 2bbc 6315 beb5
000001a0: 316b e9b6 d57f e4bd 006e 40b5 94d6 883d
000001b0: 375c 0f80 4041 663e 3dc6 25bf f367 b83e
000001c0: ce3a a23e b05d fa3e 9500 c83d 3fe4 373e
000001d0: af8d 6892 c94b 36be 9937 cc3e b909 72be
000001e0: 246f b23c 1017 23be 4118 4aaa 910e 443e
000001f0: 8586 21be b6cd c83d 6bc9 08a7 bfbb 0c3f
-1.4574582e-12 0.2748199 -0.24301481 0.05748431 -1.5893213e-32 -2.2637781e-20 -0.19400242 0.1584935
-0.008985433 0.52487785 0.35174933 0.1308865 -1.022532e-27 0.3132563 -0.15867203 0.2405877
-1.1235302e-18 0.05825413 -1.6991183e-12 0.47157806 -8.739064e-15 0.27725434 0.41863886 0.2395711
0.50888634 -0.18341474 -0.3741875 -0.0001404624 -0.00038293574 -0.3981684 0.54073447 0.25237846
-0.19459215 2.1728195e-09 0.33120963 -1.2768047e-17 0.6476137 0.3791004 -0.0062744655 -0.005665649
0.110868506 0.14481208 0.19331925 -0.010384573 0.12695082 0.44047704 0.64723 0.5211641
-0.16556722 0.43750796 -1.3617413e-08 -0.18265174 -1.8908641e-31 -0.61466765 0.005397486 -5.420999e-39
-4.9905116e-13 -2.1263453e-28 -0.24939439 -1.20872794e-23 -0.0067751636 0.5081113 0.4898321 -0.020825239
0.1463318 0.4718363 -0.0042134547 0.38827777 0.21554957 0.3722016 0.05774661 -0.20358384
-1.9004185e-32 -3.9655626e-15 0.62928414 -5.1231415e-09 -0.49010578 0.3938798 -8.811948e-12 0.41649917
-2.4774483e-13 0.060258247 -7.777443e-06 -1.2098034e-06 -4.9600706e-09 0.028850226 0.2220647 -3.2693215e-06
-0.23514575 3.961398e-39 0.22631985 0.03998103 -0.07127006 -1.2908201e-13 -4.4929493e-10 -0.011758806
0.16238695 0.33843783 0.19939376 0.5080209 0.28349903 -0.22042404 -0.010460352 -1.4162327e-06
-6.95642e-06 -0.111571945 -7.1685645e-07 0.066815525 -1.410613e-39 0.22485828 -0.6475561 0.36016807
0.3168549 0.48899603 0.09765736 0.17958163 -7.338093e-28 -0.17802347 0.39886168 -0.23636521
0.021781512 -0.15926766 -1.7949619e-13 0.19146182 -0.15773971 0.09804861 -1.898298e-15 0.5497398

edge_nn.0.bias f4 [128]
00000000: 8b10 b002 f650 2bbf e39c 5d3f ecd2 2b3f
00000010: 49ef 3209 14de 379c ba66 2e3f 9ffa dd3e
00000020: 42cf 3fbb 44e3 0939 d1a3 5ebe 012e 063f
00000030: 1fbb 2180 c2e5 20be b8e8 293f ac3a fb3e
00000040: 1796 1880 eb82 763e 17fc 2298 ea7a 33be
00000050: eced a683 a7e3 1bbf 70d3 1cbf 4e54 f1bd
00000060: b98b a2be 2332 2e3f 0acf 4b3f bfbf 2eb7
00000070: 9a04 e7b5 0eeb 243f 9ead 98be f5c3 1abe
00000080: 0cc5 463f 7134 7eb3 339a 33be a852 2080
00000090: 0d2d a6be 2561 2ebe 35d8 fd3e 7565 43bc
000000a0: f95c 133f 3f2f 0f3f eeee b73e 3b73 7dbb
000000b0: 29f7 8b3e d6ad cc3e b600 acbe ad98 a2be
000000c0: 026d 343f d0f5 ab3e 78a8 cfa4 4261 3a3f
000000d0: d687 2080 7a7f 1f3f 0542 ef3e 3932 0880
000000e0: 8a12 3106 690b 1d80 a59e 633f d5c2 1299
000000f0: 33bf 7cbb 0062 95be dbff 0c3e 861f 57bc
00000100: cd91 843d 26ba 8e3d 1e01 7eb9 9278 6cbe
00000110: 8934 c33e 0c46 03bf 8f81 103e 192c 543f
00000120: 531f ae8a d7d4 0707 4e82 8dbe a13a 42a4
00000130: 4390 323f d7b9 52bc be9a 7c8a 0350 c83e
00000140: c1b6 2b92 6fa4 323f c87d 42ae fdec 23ab
00000150: 6a57 a09f 2746 dd3e 84fd 543e a60c f2ac
00000160: db88 5a3f 5eb9 ef81 dfe0 493d 5210 d73e
00000170: 192d 163f e05f 1d80 cd27 9baf cef5 1ebc
00000180: 1dd0 013f 30a1 54bf 23e3 f1bd 1357 82be
00000190: 1aaf 8d3d 672f 4a3f 8641 daba abcb deac
000001a0: ac10 ec2f 1406 483f fcb9 10ae c8b0 2f3f
000001b0: 9c61 0480 5e53 b83e f091 5a3f fe92 6abf
000001c0: 30eb 57bf 9870 443c 6f60 bd3e 41eb 463d
000001d0: 3d78 0f00 47d0 5a3f 6d64 0dbf 4c0b 5b3f
000001e0: 011b e63e c359 193f 5980 908a ea05 cebd
000001f0: 3a18 1c3f 7894 e23e 0ef7 a289 6208 9dbe
2.587037e-37 -0.6692041 0.86567515 0.67118716 2.1538482e-33 -6.083665e-22 0.681255 0.4335527
-0.0029267822 0.00013150001 -0.21742178 0.52413946 -3.097698e-39 -0.15712646 0.66370726 0.490682
-2.257894e-39 0.24073379 -2.1065282e-24 -0.17527357 -9.811227e-37 -0.60894245 -0.6126013 -0.11783658
-0.31747225 0.6804525 0.7961279 -1.0415853e-05 -1.721218e-06 0.64421165 -0.2981996 -0.15113814
0.7764442 -5.918668e-08 -0.17539291 -2.968387e-39 -0.32456246 -0.17029245 0.49579015 -0.011926045
0.5756374 0.55931467 0.35924476 -0.003867342 0.27337006 0.39976376 -0.33594292 -0.31757107
0.7047883 0.33585978 -9.005734e-17 0.72804654 -2.987465e-39 0.6230389 0.46730056 -7.527e-40
3.330362e-35 -2.667323e-39 0.8891395 -7.587369e-24 -0.0038566112 -0.2917633 0.13769476 -0.013130074
0.06473122 0.06969099 -0.00024223744 -0.23092869 0.3812602 -0.5127876 0.14111923 0.8287979
-1.6767373e-32 1.0218819e-34 -0.27638477 -4.2116705e-17 0.69751376 -0.0128616905 -1.21624624e-32 0.39123544
-5.4183347e-28 0.69782156 -4.422221e-11 -5.823812e-13 -6.790725e-20 0.43217584 0.20799834 -6.879458e-12
0.85365075 -8.8060723e-38 0.04928672 0.4200464 0.58662564 -2.697623e-39 -2.8222616e-10 -0.009702159
0.5070818 -0.8305845 -0.11810901 -0.25457057 0.069181636 0.7897858 -0.0016651608 -6.332231e-12
4.2939996e-10 0.78134274 -3.2906997e-11 0.6862912 -4.02358e-40 0.36001104 0.8537893 -0.9163054
-0.8434324 0.011989735 0.36987635 0.0485642 1.420666e-39 0.85474056 -0.5523136 0.8556411
0.44942477 0.5990259 -1.3914975e-32 -0.10059722 0.60974467 0.44253898 -3.923241e-33 -0.30670458

edge_nn.3.weight f4 [100, 128]
00000000: 0032 1081 3a90 9b3c f610 99bd fc61 ffbd
00000010: 629c 4708 e0a8 321b 4e38 97bd 319e e6bd
00000020: 6e52 a61f 1fd5 92bd cc6b 3bbd b89a 10be
00000030: 243b 1700 2e60 97bd 171d 6abd ba75 febd
00000040: 191b 2080 6cda a1bc acec 2400 12da c1bd
00000050: c8d9 4100 aa93 8f3b 7a38 3dbc bdf4 9cbd
00000060: 1f49 9bbd 6f93 82bd d6ca 19bb da8e 1080
00000070: 4496 1d80 5409 b6bc 1a65 babd 40cb 92bd
00000080: 1b87 92bd 4c22 e629 f0c0 bcbd f60d c080
00000090: 07d1 b5bd 2c00 20bd 6cec e2bd 1150 1580
000000a0: 0f69 19be f56d 02be e203 aabd 62e6 111a
000000b0: 0b7b bcbd a861 0fbe eb4b 9cbd 178c bebd
000000c0: 33c5 9abd 7d7f 18be b8a9 3480 9637 babd
000000d0: 8329 2380 f0da a9ba 80f6 2fbd ae29 ad81
000000e0: e47c 2480 e793 3f00 0449 c9bd 164a e897
000000f0: 8aaa a798 d039 b9bd 7ba0 efbd e56e bf17
00000100: ecc6 6cbd 4c71 efbd 2332 1480 2a20 d8bd
00000110: 15e5 15be 984d bebc fc34 1cbd aeb3 e7bd
00000120: ae11 d507 3cdc 1380 7c04 05be 5007 0980
00000130: 3c85 183d 3d93 83bd d9dd 0180 18fe febd
00000140: ed03 1400 94a0 1bbe 28b9 4800 f7c5 0f00
00000150: d05f 4380 7f26 c1bd 0abe 8bbd bf33 4700
00000160: 5553 82bd db68 1c02 5a5c a3bd ecf3 aabd
00000170: 4986 83bd c263 3c80 5c17 322c 919f 27b4
00000180: 68d2 0cbe 3486 f33b 2c4e 40bc 2b20 07be
00000190: 9ca9 7ebd 267c c0bd 6fac 5118 4c54 1c00
000001a0: 69bb 2100 4b8c 9fbd a3fd 0180 9ae2 0cbe
000001b0: a858 4600 0599 0dbe 7a56 7ebc 113b 623c
000001c0: f763 843b 251d d8bd a4e8 c4bd 6fe7 61bd
000001d0: 7694 3c80 cb26 dbbd 5d6f e9bb 3ec0 69bd
000001e0: f961 cdbd a77e 37bd 4427 1b80 9730 7fbd
000001f0: 8328 37bd eaab c7bd a222 1e80 9e95 f3bd
00000200: 3f5a c181 2c83 4a10 c764 393d f9df 623d
00000210: 613d 0108 76ed bb1a 0d47 393c 7d5b 883b
00000220: f06a f61e 2118 643c 90bb 9ebc db7a c63c
00000230: bc13 0880 cbad 07bc cdfa 923b c001 0a3c
00000240: 264e 1980 8977 823a e03e 0900 deb4 d5ba
00000250: 0638 1382 548e ef1b c0bf ec9b acc0 d9bb
00000260: 40b0 dcbb 72de b53c 66a1 c73c 36e7 0c80
00000270: a53b 8501 d242 a63b 8a44 ddbb 68a2 bebb
00000280: 6a35 3dbb 192c 2200 f8c7 78bb 5cd7 8480
00000290: 2b17 0bbc 8d79 8fbc 5fa3 e5bb d646 2600
000002a0: 720b 93bc e19c ca3b f625 063d 35dd d598
000002b0: 276e 923c 061c 94bc c0d6 a4bb 5ccd f8bb
000002c0: c38b f23a 120e c73b e3b6 0c00 d158 d9ba
000002d0: 3e22 3c00 caad b83c 6181 b6ba 63c5 4c82
000002e0: 19d6 2f80 a351 af01 1975 a03b b05d c316
000002f0: a72e e415 2de1 ddbc c4e7 1b3c f665 7c15
00000300: e20e 83ba f93a 763c ccd4 1f80 5570 49bc
00000310: 2830 213d 0cc3 ce2a 7380 7e3c 9409 9c3b
00000320: 35f2 8283 ac86 2880 e6ef 093c be6d 4100
00000330: 1501 7e3c fea7 edbb 7863 1081 3929 f73c
00000340: 402c 1402 9a27 95bb f310 ac81 fa0b 4b00
00000350: 9639 fe81 8428 18bb 8cfb aabc fcf2 2500
00000360: 4094 97bb 1679 0500 1871 15bc 3c9e 153c
00000370: 6f0f 713b c78b bf81 80a6 5627 2ef6 d5b3
00000380: d9de 3c3c 0451 9f8b 576c 1dbc aaf9 9dbc
00000390: 325d b23b 03c3 d73c 1eb1 8d18 96f8 2080
000003a0: b663 0680 04ca 84bb 5968 1f00 851f 523b
000003b0: 845d 2a00 de6d 023d c8c1 0e3b 2252 e40a
000003c0: 6653 ac0e 6d36 82bb f7ba 30bc 5adf 873c
000003d0: ae0e 4180 a541 e0b8 00ed 251a 5144 54ba
000003e0: 3575 5e3c c5fa e23c c138 3980 2076 ddbb
000003f0: 1818 1e3d 5e54 98bb a0c7 0700 2b12 f5bb
-2.6484496e-38 0.018989671 -0.07473938 -0.12469861 6.006821e-34 1.4778381e-22 -0.07383786 -0.11260641
7.04401e-20 -0.07169556 -0.0457571 -0.1412152 2.133432e-39 -0.07391392 -0.05715665 -0.12424798
-2.948457e-39 -0.019757472 3.39098e-39 -0.09465422 6.047432e-39 0.0043816166 -0.01154911 -0.076638676
-0.07582306 -0.06375777 -0.0023466847 -1.520613e-39 -2.717135e-39 -0.022221245 -0.09101315 -0.07167673
-0.071546756 1.02200014e-13 -0.092164874 -1.7637424e-38 -0.088777594 -0.039062664 -0.1108025 -1.957268e-39
-0.14981483 -0.12737258 -0.08301522 3.01714e-23 -0.09203156 -0.14002097 -0.07631668 -0.09304064
-0.07557144 -0.14892383 -4.83633e-39 -0.090926334 -3.229134e-39 -0.0012958925 -0.04295969 -6.360997e-38
-3.35088e-39 5.838694e-39 -0.0982838 -1.5011351e-24 -4.334069e-24 -0.0904423 -0.11700531 1.2371079e-24
-0.057806894 -0.116915315 -1.854696e-39 -0.1055301 -0.14638169 -0.023230359 -0.038136467 -0.11313568
3.205907e-34 -1.82388e-39 -0.12989992 -8.29143e-40 0.037236437 -0.06424568 -1.7142e-40 -0.12450808
1.838118e-39 -0.15197974 6.678577e-39 1.448549e-39 -6.187349e-39 -0.09431171 -0.068233564 6.538883e-39
-0.063635506 1.1491162e-37 -0.07976599 -0.08347306 -0.06422097 -5.545916e-39 2.5308288e-12 -1.5611137e-07
-0.13752139 0.0074317697 -0.011737388 -0.13195865 -0.06217347 -0.093986794 2.7099674e-24 2.601634e-39
3.097801e-39 -0.07790431 -1.82823e-40 -0.13758317 6.460289e-39 -0.13827904 -0.015523547 0.013808028
0.004040237 -0.10552434 -0.09614685 -0.055152353 -5.563388e-39 -0.107007585 -0.0071238712 -0.057068102
-0.100284524 -0.04479852 -2.493644e-39 -0.0623022 -0.04471637 -0.09749587 -2.767489e-39 -0.118937716
-7.10265e-38 3.9938527e-29 0.045262124 0.05538938 3.8891676e-34 7.7725026e-23 0.011308444 0.004161297
2.6090491e-20 0.013921768 -0.019376546 0.024228504 -7.41763e-40 -0.008281182 0.004485464 0.008423269
-2.323922e-39 0.0009953837 8.49075e-40 -0.0016304513 -1.0815932e-37 3.963121e-22 -3.916684e-22 -0.0066452827
-0.006734878 0.022200797 0.024368953 -1.184969e-39 4.894207e-38 0.0050738836 -0.0067525553 -0.0058177
-0.0028870949 3.138226e-39 -0.0037960988 -1.2199542e-38 -0.00848941 -0.017514015 -0.0070080007 3.51516e-39
-0.017949793 0.006183252 0.032751046 -5.528257e-24 0.01787479 -0.018079769 -0.005030483 -0.00759284
0.0018504787 0.0060746754 1.167633e-39 -0.0016582255 5.522414e-39 0.022543807 -0.0013924056 -1.50442e-37
-4.393072e-39 6.440199e-38 0.0048967716 3.1563074e-25 9.216207e-26 -0.027084911 0.009515706 5.0971428e-26
-0.0009998942 0.015028709 -2.923238e-39 -0.012294848 0.039352566 3.6728292e-13 0.015533554 0.004761884
-7.696321e-37 -3.721731e-39 0.008419013 6.008675e-39 0.015503188 -0.0072526922 -2.6519988e-38 0.030171024
1.0886022e-37 -0.00455184 -6.320714e-38 6.891959e-39 -9.3387496e-38 -0.0023217509 -0.0208719 3.48508e-39
-0.004625827 5.02615e-40 -0.009121202 0.009131964 0.003678288 -7.036289e-38 2.9788726e-15 -9.963365e-08
0.01152774 -6.136647e-32 -0.00960835 -0.019284088 0.0054432387 0.026338106 3.662649e-24 -3.027912e-39
-5.86783e-40 -0.0040524025 2.884333e-39 0.0032062244 3.890638e-39 0.03184306 0.0021782983 2.1986496e-32
4.2481583e-30 -0.003973773 -0.010786763 0.016585995 -5.974573e-39 -0.000106933796 3.4312647e-23 -0.0008097338
0.013577749 0.027707467 -5.254983e-39 -0.0067584664 0.038597196 -0.004648729 7.1446e-40 -0.0074789724

edge_nn.3.bias f4 [100]
00000000: 927d c8bd 8f43 2d3c b464 0a3e 9648 1f3e
00000010: 7ec5 89ba 0bfa cd3c 3bfa f53c f374 f43d
00000020: d58b 8abd ec10 0dbd 311d 173e 01d6 dabc
00000030: 327d fe3e b9ea 983e 27c4 253d d316 adbd
00000040: e2c7 c53e c50f fb3e 1906 b33e f139 9f3e
00000050: a5dd 1c3e 1287 2abd 183b 703e 8d3b 55bc
00000060: 5894 0b3d 25d4 9bb9 276a 8a3e adf9 823e
00000070: 8381 843e e338 53bd ba1d 24bd b7ba 893d
00000080: 0a91 553d f323 22be da99 1e3e ee88 f03d
00000090: 3978 293e a656 253e 15c3 4c3e 0a29 ccbd
000000a0: 01bf 463e b0bb 61bd a3b4 863e 1c94 613e
000000b0: 52f3 95bd 55a7 9dbd 7a22 cd3d 4f33 463e
000000c0: 52b5 553e 5842 1b3e 56d2 adbc 6f31 313e
000000d0: c409 82ba 985d 2abd bceb 983e 82b8 bf3d
000000e0: b878 ad3a 37fa f4bd 7564 873e a82a 933e
000000f0: e9a4 843e d6d7 9d3e 0366 583e 834a e33e
00000100: 2893 e13e 7cbd 48bd df79 763e a27c 3e3e
00000110: 5bbb d93e 9244 f03e fab4 d13e 3ecd 9d3e
00000120: f189 163f 93ab d03e 4760 233f 48d3 8c3c
00000130: a290 eb3e f2bf 1b3f 633c 263f 44f6 0a3f
00000140: c5c4 293e 14d1 563d 594f ce3e b021 c43e
00000150: a726 b73e f289 87bd 2198 ba3e 0266 e43e
00000160: 5db7 d03e e5f5 9e3e eddb 263e 615e a83e
00000170: f079 7e3e ecd1 df3e 98f4 f23e ba83 2ebc
00000180: 7a4a 483e c02e ad3e 000d 023f 6578 c23e
-0.09789576 0.010575189 0.13514978 0.15555033 -0.0010511128 0.025143644 0.030026546 0.11936369
-0.06764952 -0.034439966 0.1475723 -0.026713373 0.4970489 0.2986658 0.04047027 -0.08451619
0.3862906 0.4903547 0.3496559 0.31098893 0.15318926 -0.04163272 0.23460042 -0.013014686
0.03407702 -0.00029721964 0.27034113 0.25581113 0.2588006 -0.051567923 -0.040067412 0.06725066
0.052140273 -0.15834026 0.15488377 0.11744867 0.16549768 0.16146335 0.19996293 -0.09968765
0.194088 -0.055110633 0.2630969 0.22029155 -0.073218 -0.07697932 0.100163415 0.1935551
0.2086995 0.15162027 -0.02121846 0.17304014 -0.0009921123 -0.041593164 0.2986735 0.09361364
0.001323483 -0.11961787 0.2644383 0.28743482 0.25907066 0.30828732 0.21132664 0.44392785
0.44057584 -0.04900883 0.24069928 0.18602231 0.42525753 0.46927315 0.40958387 0.3082065
0.5880423 0.407559 0.6381878 0.01719059 0.46008784 0.6083976 0.6493589 0.5428202
0.16578968 0.052445486 0.40294912 0.38306952 0.35771677 -0.06618108 0.3644419 0.44609076
0.40764895 0.31046978 0.16294833 0.32884505 0.24851203 0.43714845 0.47452235 -0.010651523
0.1955966 0.3382473 0.50801086 0.3798248

conv1.bias f4 [10]
00000000: 0c00 d63e b056 943e 797f 253f 0a7f 1e3f
00000010: 1bc0 383f 36d6 863c b758 fb3e db31 213f
00000020: e051 253f 8f81 143f
0.4179691 0.28972387 0.6464763 0.61912596 0.7216813 0.016459566 0.49091122 0.629667
0.64578056 0.5801019

conv1.nn.0.weight f4 [128, 1]
00000000: 771e cdab 32b5 8c3e e0d8 78be ab74 6b3d
00000010: 680b a58a ccce d59e 92a8 46be 1f4c 223e
00000020: a337 13bc 655e 063f 7d18 b43e 1c07 063e
00000030: d306 a292 2163 a03e ec7a 22be 9f5c 763e
00000040: c5cd a5a1 e29b 6e3d 3021 efab ae72 f13e
00000050: d26d 1da8 48f4 8d3e d557 d63e 2052 753e
00000060: 6046 023f 13d1 3bbe 8195 bfbe 1749 13b9
00000070: c4c4 c8b9 bbdc cbbe 936d 0a3f c037 813e
00000080: 2a43 47be a550 1531 4f94 a93e 6687 6ba3
00000090: 03ca 253f 7319 c23e 089a cdbb e9a6 b9bb
000000a0: 070f e33d 9e49 143e 7bf5 453e 0e24 2abc
000000b0: 65ff 013e 3586 e13e deb0 253f 036b 053f
000000c0: 748a 29be 0b01 e03e 04f2 69b2 0f09 3bbe
000000d0: bd72 758c dc5a 1dbf 65dd b03b 8a07 3b80
000000e0: 6d78 0cab edc5 8691 3e61 7fbe 4fcd 6999
000000f0: 3102 debb 9513 023f 46cb fa3e b199 aabc
00000100: 01d8 153e 8794 f13e 0511 8abb 58cc c63e
00000110: 07b9 5c3e 3591 be3e b687 6c3d 4878 50be
00000120: ca59 c58a dcdf 8ea7 c418 213f a107 b0b1
00000130: 25ef fabe 9daa c93e 7c05 1bad 613f d53e
00000140: cb77 8baa 5ad1 763d dd7b 02b7 8760 a2b5
00000150: 3e6d aab1 4f57 ec3c ee64 633e 8466 5bb6
00000160: 0cca 70be c422 2b00 64c0 673e 26c3 233d
00000170: 0af6 91bd 5b55 11aa a400 f7af 02a8 40bc
00000180: c448 263e b947 ad3e e12d 4c3e a80d 023f
00000190: c926 913e d7b6 61be e561 2bbc 6315 beb5
000001a0: 316b e9b6 d57f e4bd 006e 40b5 94d6 883d
000001b0: 375c 0f80 4041 663e 3dc6 25bf f367 b83e
000001c0: ce3a a23e b05d fa3e 9500 c83d 3fe4 373e
000001d0: af8d 6892 c94b 36be 9937 cc3e b909 72be
000001e0: 246f b23c 1017 23be 4118 4aaa 910e 443e
000001f0: 8586 21be b6cd c83d 6bc9 08a7 bfbb 0c3f
-1.4574582e-12 0.2748199 -0.24301481 0.05748431 -1.5893213e-32 -2.2637781e-20 -0.19400242 0.1584935
-0.008985433 0.52487785 0.35174933 0.1308865 -1.022532e-27 0.3132563 -0.15867203 0.2405877
-1.1235302e-18 0.05825413 -1.6991183e-12 0.47157806 -8.739064e-15 0.27725434 0.41863886 0.2395711
0.50888634 -0.18341474 -0.3741875 -0.0001404624 -0.00038293574 -0.3981684 0.54073447 0.25237846
-0.19459215 2.1728195e-09 0.33120963 -1.2768047e-17 0.6476137 0.3791004 -0.0062744655 -0.005665649
0.110868506 0.14481208 0.19331925 -0.010384573 0.12695082 0.44047704 0.64723 0.5211641
-0.16556722 0.43750796 -1.3617413e-08 -0.18265174 -1.8908641e-31 -0.61466765 0.005397486 -5.420999e-39
-4.9905116e-13 -2.1263453e-28 -0.24939439 -1.20872794e-23 -0.0067751636 0.5081113 0.4898321 -0.020825239
0.1463318 0.4718363 -0.0042134547 0.38827777 0.21554957 0.3722016 0.05774661 -0.20358384
-1.9004185e-32 -3.9655626e-15 0.62928414 -5.1231415e-09 -0.49010578 0.3938798 -8.811948e-12 0.41649917
-2.4774483e-13 0.060258247 -7.777443e-06 -1.2098034e-06 -4.9600706e-09 0.028850226 0.2220647 -3.2693215e-06
-0.23514575 3.961398e-39 0.22631985 0.03998103 -0.07127006 -1.2908201e-13 -4.4929493e-10 -0.011758806
0.16238695 0.33843783 0.19939376 0.5080209 0.28349903 -0.22042404 -0.010460352 -1.4162327e-06
-6.95642e-06 -0.111571945 -7.1685645e-07 0.066815525 -1.410613e-39 0.22485828 -0.6475561 0.36016807
0.3168549 0.48899603 0.09765736 0.17958163 -7.338093e-28 -0.17802347 0.39886168 -0.23636521
0.021781512 -0.15926766 -1.7949619e-13 0.19146182 -0.15773971 0.09804861 -1.898298e-15 0.5497398

conv1.nn.0.bias f4 [128]
00000000: 8b10 b002 f650 2bbf e39c 5d3f ecd2 2b3f
00000010: 49ef 3209 14de 379c ba66 2e3f 9ffa dd3e
00000020: 42cf 3fbb 44e3 0939 d1a3 5ebe 012e 063f
00000030: 1fbb 2180 c2e5 20be b8e8 293f ac3a fb3e
00000040: 1796 1880 eb82 763e 17fc 2298 ea7a 33be
00000050: eced a683 a7e3 1bbf 70d3 1cbf 4e54 f1bd
00000060: b98b a2be 2332 2e3f 0acf 4b3f bfbf 2eb7
00000070: 9a04 e7b5 0eeb 243f 9ead 98be f5c3 1abe
00000080: 0cc5 463f 7134 7eb3 339a 33be a852 2080
00000090: 0d2d a6be 2561 2ebe 35d8 fd3e 7565 43bc
000000a0: f95c 133f 3f2f 0f3f eeee b73e 3b73 7dbb
000000b0: 29f7 8b3e d6ad cc3e b600 acbe ad98 a2be
000000c0: 026d 343f d0f5 ab3e 78a8 cfa4 4261 3a3f
000000d0: d687 2080 7a7f 1f3f 0542 ef3e 3932 0880
000000e0: 8a12 3106 690b 1d80 a59e 633f d5c2 1299
000000f0: 33bf 7cbb 0062 95be dbff 0c3e 861f 57bc
00000100: cd91 843d 26ba 8e3d 1e01 7eb9 9278 6cbe
00000110: 8934 c33e 0c46 03bf 8f81 103e 192c 543f
00000120: 531f ae8a d7d4 0707 4e82 8dbe a13a 42a4
00000130: 4390 323f d7b9 52bc be9a 7c8a 0350 c83e
00000140: c1b6 2b92 6fa4 323f c87d 42ae fdec 23ab
00000150: 6a57 a09f 2746 dd3e 84fd 543e a60c f2ac
00000160: db88 5a3f 5eb9 ef81 dfe0 493d 5210 d73e
00000170: 192d 163f e05f 1d80 cd27 9baf cef5 1ebc
00000180: 1dd0 013f 30a1 54bf 23e3 f1bd 1357 82be
00000190: 1aaf 8d3d 672f 4a3f 8641 daba abcb deac
000001a0: ac10 ec2f 1406 483f fcb9 10ae c8b0 2f3f
000001b0: 9c61 0480 5e53 b83e f091 5a3f fe92 6abf
000001c0: 30eb 57bf 9870 443c 6f60 bd3e 41eb 463d
000001d0: 3d78 0f00 47d0 5a3f 6d64 0dbf 4c0b 5b3f
000001e0: 011b e63e c359 193f 5980 908a ea05 cebd
000001f0: 3a18 1c3f 7894 e23e 0ef7 a289 6208 9dbe
2.587037e-37 -0.6692041 0.86567515 0.67118716 2.1538482e-33 -6.083665e-22 0.681255 0.4335527
-0.0029267822 0.00013150001 -0.21742178 0.52413946 -3.097698e-39 -0.15712646 0.66370726 0.490682
-2.257894e-39 0.24073379 -2.1065282e-24 -0.17527357 -9.811227e-37 -0.60894245 -0.6126013 -0.11783658
-0.31747225 0.6804525 0.7961279 -1.0415853e-05 -1.721218e-06 0.64421165 -0.2981996 -0.15113814
0.7764442 -5.918668e-08 -0.17539291 -2.968387e-39 -0.32456246 -0.17029245 0.49579015 -0.011926045
0.5756374 0.55931467 0.35924476 -0.003867342 0.27337006 0.39976376 -0.33594292 -0.31757107
0.7047883 0.33585978 -9.005734e-17 0.72804654 -2.987465e-39 0.6230389 0.46730056 -7.527e-40
3.330362e-35 -2.667323e-39 0.8891395 -7.587369e-24 -0.0038566112 -0.2917633 0.13769476 -0.013130074
0.06473122 0.06969099 -0.00024223744 -0.23092869 0.3812602 -0.5127876 0.14111923 0.8287979
-1.6767373e-32 1.0218819e-34 -0.27638477 -4.2116705e-17 0.69751376 -0.0128616905 -1.21624624e-32 0.39123544
-5.4183347e-28 0.69782156 -4.422221e-11 -5.823812e-13 -6.790725e-20 0.43217584 0.20799834 -6.879458e-12
0.85365075 -8.8060723e-38 0.04928672 0.4200464 0.58662564 -2.697623e-39 -2.8222616e-10 -0.009702159
0.5070818 -0.8305845 -0.11810901 -0.25457057 0.069181636 0.7897858 -0.0016651608 -6.332231e-12
4.2939996e-10 0.78134274 -3.2906997e-11 0.6862912 -4.02358e-40 0.36001104 0.8537893 -0.9163054
-0.8434324 0.011989735 0.36987635 0.0485642 1.420666e-39 0.85474056 -0.5523136 0.8556411
0.44942477 0.5990259 -1.3914975e-32 -0.10059722 0.60974467 0.44253898 -3.923241e-33 -0.30670458

conv1.nn.3.weight f4 [100, 128]
00000000: 0032 1081 3a90 9b3c f610 99bd fc61 ffbd
00000010: 629c 4708 e0a8 321b 4e38 97bd 319e e6bd
00000020: 6e52 a61f 1fd5 92bd cc6b 3bbd b89a 10be
00000030: 243b 1700 2e60 97bd 171d 6abd ba75 febd
00000040: 191b 2080 6cda a1bc acec 2400 12da c1bd
00000050: c8d9 4100 aa93 8f3b 7a38 3dbc bdf4 9cbd
00000060: 1f49 9bbd 6f93 82bd d6ca 19bb da8e 1080
00000070: 4496 1d80 5409 b6bc 1a65 babd 40cb 92bd
00000080: 1b87 92bd 4c22 e629 f0c0 bcbd f60d c080
00000090: 07d1 b5bd 2c00 20bd 6cec e2bd 1150 1580
000000a0: 0f69 19be f56d 02be e203 aabd 62e6 111a
000000b0: 0b7b bcbd a861 0fbe eb4b 9cbd 178c bebd
000000c0: 33c5 9abd 7d7f 18be b8a9 3480 9637 babd
000000d0: 8329 2380 f0da a9ba 80f6 2fbd ae29 ad81
000000e0: e47c 2480 e793 3f00 0449 c9bd 164a e897
000000f0: 8aaa a798 d039 b9bd 7ba0 efbd e56e bf17
00000100: ecc6 6cbd 4c71 efbd 2332 1480 2a20 d8bd
00000110: 15e5 15be 984d bebc fc34 1cbd aeb3 e7bd
00000120: ae11 d507 3cdc 1380 7c04 05be 5007 0980
00000130: 3c85 183d 3d93 83bd d9dd 0180 18fe febd
00000140: ed03 1400 94a0 1bbe 28b9 4800 f7c5 0f00
00000150: d05f 4380 7f26 c1bd 0abe 8bbd bf33 4700
00000160: 5553 82bd db68 1c02 5a5c a3bd ecf3 aabd
00000170: 4986 83bd c263 3c80 5c17 322c 919f 27b4
00000180: 68d2 0cbe 3486 f33b 2c4e 40bc 2b20 07be
00000190: 9ca9 7ebd 267c c0bd 6fac 5118 4c54 1c00
000001a0: 69bb 2100 4b8c 9fbd a3fd 0180 9ae2 0cbe
000001b0: a858 4600 0599 0dbe 7a56 7ebc 113b 623c
000001c0: f763 843b 251d d8bd a4e8 c4bd 6fe7 61bd
000001d0: 7694 3c80 cb26 dbbd 5d6f e9bb 3ec0 69bd
000001e0: f961 cdbd a77e 37bd 4427 1b80 9730 7fbd
000001f0: 8328 37bd eaab c7bd a222 1e80 9e95 f3bd
00000200: 3f5a c181 2c83 4a10 c764 393d f9df 623d
00000210: 613d 0108 76ed bb1a 0d47 393c 7d5b 883b
00000220: f06a f61e 2118 643c 90bb 9ebc db7a c63c
00000230: bc13 0880 cbad 07bc cdfa 923b c001 0a3c
00000240: 264e 1980 8977 823a e03e 0900 deb4 d5ba
00000250: 0638 1382 548e ef1b c0bf ec9b acc0 d9bb
00000260: 40b0 dcbb 72de b53c 66a1 c73c 36e7 0c80
00000270: a53b 8501 d242 a63b 8a44 ddbb 68a2 bebb
00000280: 6a35 3dbb 192c 2200 f8c7 78bb 5cd7 8480
00000290: 2b17 0bbc 8d79 8fbc 5fa3 e5bb d646 2600
000002a0: 720b 93bc e19c ca3b f625 063d 35dd d598
000002b0: 276e 923c 061c 94bc c0d6 a4bb 5ccd f8bb
000002c0: c38b f23a 120e c73b e3b6 0c00 d158 d9ba
000002d0: 3e22 3c00 caad b83c 6181 b6ba 63c5 4c82
000002e0: 19d6 2f80 a351 af01 1975 a03b b05d c316
000002f0: a72e e415 2de1 ddbc c4e7 1b3c f665 7c15
00000300: e20e 83ba f93a 763c ccd4 1f80 5570 49bc
00000310: 2830 213d 0cc3 ce2a 7380 7e3c 9409 9c3b
00000320: 35f2 8283 ac86 2880 e6ef 093c be6d 4100
00000330: 1501 7e3c fea7 edbb 7863 1081 3929 f73c
00000340: 402c 1402 9a27 95bb f310 ac81 fa0b 4b00
00000350: 9639 fe81 8428 18bb 8cfb aabc fcf2 2500
00000360: 4094 97bb 1679 0500 1871 15bc 3c9e 153c
00000370: 6f0f 713b c78b bf81 80a6 5627 2ef6 d5b3
00000380: d9de 3c3c 0451 9f8b 576c 1dbc aaf9 9dbc
00000390: 325d b23b 03c3 d73c 1eb1 8d18 96f8 2080
000003a0: b663 0680 04ca 84bb 5968 1f00 851f 523b
000003b0: 845d 2a00 de6d 023d c8c1 0e3b 2252 e40a
000003c0: 6653 ac0e 6d36 82bb f7ba 30bc 5adf 873c
000003d0: ae0e 4180 a541 e0b8 00ed 251a 5144 54ba
000003e0: 3575 5e3c c5fa e23c c138 3980 2076 ddbb
000003f0: 1818 1e3d 5e54 98bb a0c7 0700 2b12 f5bb
-2.6484496e-38 0.018989671 -0.07473938 -0.12469861 6.006821e-34 1.4778381e-22 -0.07383786 -0.11260641
7.04401e-20 -0.07169556 -0.0457571 -0.1412152 2.133432e-39 -0.07391392 -0.05715665 -0.12424798
-2.948457e-39 -0.019757472 3.39098e-39 -0.09465422 6.047432e-39 0.0043816166 -0.01154911 -0.076638676
-0.07582306 -0.06375777 -0.0023466847 -1.520613e-39 -2.717135e-39 -0.022221245 -0.09101315 -0.07167673
-0.071546756 1.02200014e-13 -0.092164874 -1.7637424e-38 -0.088777594 -0.039062664 -0.1108025 -1.957268e-39
-0.14981483 -0.12737258 -0.08301522 3.01714e-23 -0.09203156 -0.14002097 -0.07631668 -0.09304064
-0.07557144 -0.14892383 -4.83633e-39 -0.090926334 -3.229134e-39 -0.0012958925 -0.04295969 -6.360997e-38
-3.35088e-39 5.838694e-39 -0.0982838 -1.5011351e-24 -4.334069e-24 -0.0904423 -0.11700531 1.2371079e-24
-0.057806894 -0.116915315 -1.854696e-39 -0.1055301 -0.14638169 -0.023230359 -0.038136467 -0.11313568
3.205907e-34 -1.82388e-39 -0.12989992 -8.29143e-40 0.037236437 -0.06424568 -1.7142e-40 -0.12450808
1.838118e-39 -0.15197974 6.678577e-39 1.448549e-39 -6.187349e-39 -0.09431171 -0.068233564 6.538883e-39
-0.063635506 1.1491162e-37 -0.07976599 -0.08347306 -0.06422097 -5.545916e-39 2.5308288e-12 -1.5611137e-07
-0.13752139 0.0074317697 -0.011737388 -0.13195865 -0.06217347 -0.093986794 2.7099674e-24 2.601634e-39
3.097801e-39 -0.07790431 -1.82823e-40 -0.13758317 6.460289e-39 -0.13827904 -0.015523547 0.013808028
0.004040237 -0.10552434 -0.09614685 -0.055152353 -5.563388e-39 -0.107007585 -0.0071238712 -0.057068102
-0.100284524 -0.04479852 -2.493644e-39 -0.0623022 -0.04471637 -0.09749587 -2.767489e-39 -0.118937716
-7.10265e-38 3.9938527e-29 0.045262124 0.05538938 3.8891676e-34 7.7725026e-23 0.011308444 0.004161297
2.6090491e-20 0.013921768 -0.019376546 0.024228504 -7.41763e-40 -0.008281182 0.004485464 0.008423269
-2.323922e-39 0.0009953837 8.49075e-40 -0.0016304513 -1.0815932e-37 3.963121e-22 -3.916684e-22 -0.0066452827
-0.006734878 0.022200797 0.024368953 -1.184969e-39 4.894207e-38 0.0050738836 -0.0067525553 -0.0058177
-0.0028870949 3.138226e-39 -0.0037960988 -1.2199542e-38 -0.00848941 -0.017514015 -0.0070080007 3.51516e-39
-0.017949793 0.006183252 0.032751046 -5.528257e-24 0.01787479 -0.018079769 -0.005030483 -0.00759284
0.0018504787 0.0060746754 1.167633e-39 -0.0016582255 5.522414e-39 0.022543807 -0.0013924056 -1.50442e-37
-4.393072e-39 6.440199e-38 0.0048967716 3.1563074e-25 9.216207e-26 -0.027084911 0.009515706 5.0971428e-26
-0.0009998942 0.015028709 -2.923238e-39 -0.012294848 0.039352566 3.6728292e-13 0.015533554 0.004761884
-7.696321e-37 -3.721731e-39 0.008419013 6.008675e-39 0.015503188 -0.0072526922 -2.6519988e-38 0.030171024
1.0886022e-37 -0.00455184 -6.320714e-38 6.891959e-39 -9.3387496e-38 -0.0023217509 -0.0208719 3.48508e-39
-0.004625827 5.02615e-40 -0.009121202 0.009131964 0.003678288 -7.036289e-38 2.9788726e-15 -9.963365e-08
0.01152774 -6.136647e-32 -0.00960835 -0.019284088 0.0054432387 0.026338106 3.662649e-24 -3.027912e-39
-5.86783e-40 -0.0040524025 2.884333e-39 0.0032062244 3.890638e-39 0.03184306 0.0021782983 2.1986496e-32
4.2481583e-30 -0.003973773 -0.010786763 0.016585995 -5.974573e-39 -0.000106933796 3.4312647e-23 -0.0008097338
0.013577749 0.027707467 -5.254983e-39 -0.0067584664 0.038597196 -0.004648729 7.1446e-40 -0.0074789724

conv1.nn.3.bias f4 [100]
00000000: 927d c8bd 8f43 2d3c b464 0a3e 9648 1f3e
00000010: 7ec5 89ba 0bfa cd3c 3bfa f53c f374 f43d
00000020: d58b 8abd ec10 0dbd 311d 173e 01d6 dabc
00000030: 327d fe3e b9ea 983e 27c4 253d d316 adbd
00000040: e2c7 c53e c50f fb3e 1906 b33e f139 9f3e
00000050: a5dd 1c3e 1287 2abd 183b 703e 8d3b 55bc
00000060: 5894 0b3d 25d4 9bb9 276a 8a3e adf9 823e
00000070: 8381 843e e338 53bd ba1d 24bd b7ba 893d
00000080: 0a91 553d f323 22be da99 1e3e ee88 f03d
00000090: 3978 293e a656 253e 15c3 4c3e 0a29 ccbd
000000a0: 01bf 463e b0bb 61bd a3b4 863e 1c94 613e
000000b0: 52f3 95bd 55a7 9dbd 7a22 cd3d 4f33 463e
000000c0: 52b5 553e 5842 1b3e 56d2 adbc 6f31 313e
000000d0: c409 82ba 985d 2abd bceb 983e 82b8 bf3d
000000e0: b878 ad3a 37fa f4bd 7564 873e a82a 933e
000000f0: e9a4 843e d6d7 9d3e 0366 583e 834a e33e
00000100: 2893 e13e 7cbd 48bd df79 763e a27c 3e3e
00000110: 5bbb d93e 9244 f03e fab4 d13e 3ecd 9d3e
00000120: f189 163f 93ab d03e 4760 233f 48d3 8c3c
00000130: a290 eb3e f2bf 1b3f 633c 263f 44f6 0a3f
00000140: c5c4 293e 14d1 563d 594f ce3e b021 c43e
00000150: a726 b73e f289 87bd 2198 ba3e 0266 e43e
00000160: 5db7 d03e e5f5 9e3e eddb 263e 615e a83e
00000170: f079 7e3e ecd1 df3e 98f4 f23e ba83 2ebc
00000180: 7a4a 483e c02e ad3e 000d 023f 6578 c23e
-0.09789576 0.010575189 0.13514978 0.15555033 -0.0010511128 0.025143644 0.030026546 0.11936369
-0.06764952 -0.034439966 0.1475723 -0.026713373 0.4970489 0.2986658 0.04047027 -0.08451619
0.3862906 0.4903547 0.3496559 0.31098893 0.15318926 -0.04163272 0.23460042 -0.013014686
0.03407702 -0.00029721964 0.27034113 0.25581113 0.2588006 -0.051567923 -0.040067412 0.06725066
0.052140273 -0.15834026 0.15488377 0.11744867 0.16549768 0.16146335 0.19996293 -0.09968765
0.194088 -0.055110633 0.2630969 0.22029155 -0.073218 -0.07697932 0.100163415 0.1935551
0.2086995 0.15162027 -0.02121846 0.17304014 -0.0009921123 -0.041593164 0.2986735 0.09361364
0.001323483 -0.11961787 0.2644383 0.28743482 0.25907066 0.30828732 0.21132664 0.44392785
0.44057584 -0.04900883 0.24069928 0.18602231 0.42525753 0.46927315 0.40958387 0.3082065
0.5880423 0.407559 0.6381878 0.01719059 0.46008784 0.6083976 0.6493589 0.5428202
0.16578968 0.052445486 0.40294912 0.38306952 0.35771677 -0.06618108 0.3644419 0.44609076
0.40764895 0.31046978 0.16294833 0.32884505 0.24851203 0.43714845 0.47452235 -0.010651523
0.1955966 0.3382473 0.50801086 0.3798248

conv1.lin.weight f4 [10, 10]
00000000: 4f11 bb3d d8e6 c63e 2792 f13d 6a88 a3bc
00000010: e0b0 723e 0174 afbd 7eed 8d3e 7385 a63e
00000020: 51b8 783e 0c61 e93d 51aa 8fbd c6a1 f0bd
00000030: 261b 32bd e6e4 a53d 088a 10be 8082 653e
00000040: 467d d43e 07f6 8d3e 80d3 3dba 0d43 b63e
00000050: 35fc 0a3e f2ea bc3e f7e6 7e3e c288 523d
00000060: f71f 5d3e 8c6b 573e c4b4 bb3e 70b8 473f
00000070: af25 c83e a780 e93e 5bf0 b63d 78c5 843e
00000080: 1153 3d3e eac8 3d3d f0f3 ac3e 21e1 053e
00000090: 55dc d83e ec22 4c3f c959 0c3f 1a97 063f
000000a0: 0fb3 063e 2d35 f83e b9f0 2d3e f3ca 283e
000000b0: a7af 893e 2c27 923e e790 073f 96ce 753f
000000c0: 6d37 de3e 0ebd b73e 2307 5f3e 50e2 9c3d
000000d0: 6730 0ebe f758 25bd 4571 ff3c 9508 983d
000000e0: 94a8 2e3d b2e0 593c 554c 31be 7d32 acbb
000000f0: 50b1 0d3c c581 693e 276e 633e 5adb 063e
00000100: e424 3f3e 3397 b43d 7600 b53e ac2f b33e
00000110: 9666 b63e f0ee 473e 5a06 043d a62e b93e
00000120: 5eac 553e 19c7 01bd 678e 8f3e 0765 4c3e
00000130: 2c4d 133f 3fd0 2e3f e529 903e 1314 c13e
00000140: d9a8 523e 5efc 163f 59b9 023e 27d9 1d3d
00000150: 5dd1 893e 5999 8a3e 6709 9d3e d25c 623f
00000160: 4e11 7c3e 92f2 d83e 1b9f 3f3e cde1 cd3e
00000170: bd7c 0b3e 834a c1bb 52df 673e a86f 5d3e
00000180: 4337 b93e 59f6 003f 1c7b 5e3e a6da b83e
0.09134161 0.38847995 0.117954545 -0.019962508 0.23700285 -0.08567048 0.27720255 0.3252369
0.24289061 0.11395463 -0.07014907 -0.11749606 -0.043482922 0.081002995 -0.14115155 0.22413063
0.41501826 0.27726766 -0.0007241294 0.3559803 0.13572772 0.36898 0.24892794 0.051399954
0.21594225 0.2103712 0.3666135 0.78015804 0.3909125 0.45605966 0.08932563 0.25931907
0.18488719 0.046334185 0.3377986 0.13074161 0.423556 0.79740787 0.548245 0.5257431
0.13154243 0.4847807 0.1698636 0.16483669 0.26891825 0.2854551 0.5295548 0.9601835
0.43401662 0.35886425 0.21780066 0.07660353 -0.13885652 -0.040368047 0.03118194 0.07423512
0.042641237 0.0132982 -0.17314275 -0.005255042 0.008648232 0.2280341 0.22209989 0.13169613
0.18666416 0.088179015 0.35351914 0.34997308 0.35625142 0.19524741 0.03223262 0.36168402
0.20866534 -0.031684015 0.28038332 0.19960414 0.5753963 0.6828651 0.28156963 0.37710628
0.20572223 0.5897883 0.12766017 0.03853717 0.26917544 0.2707012 0.30671236 0.8842288
0.24615976 0.42372566 0.18713038 0.40211335 0.13621803 -0.005898775 0.22643784 0.21624625
0.36174974 0.50375897 0.2172665 0.36104316

exp_avg f4 [64, 13]
00000000: 729c 8dbb 3a01 3cbb a4af d5bc 2566 1dbd
00000010: ae85 cebc 336c febc e35f 28bc cbe4 b5bc
00000020: 2a84 c1bc 84ce a0bc 0930 6abe 5e8d aabd
00000030: 2eb0 a0bd 60cf fa9c e2b0 191f e299 2ca1
00000040: 3ed3 8021 b9b0 0b21 a753 8c20 c3eb 671f
00000050: 3aa1 e8a0 d65f a81f 5ff5 0221 4b80 30b4
00000060: 1999 0fb0 f598 4aaf bfb9 c3b7 ad33 a737
00000070: 5ada 1a39 5985 6439 e38d 2d39 7f32 1e39
00000080: de47 5438 214b 2439 45d2 0139 27ce d438
00000090: 02c5 a63b 3706 c33a 1495 053b 8500 0080
000000a0: 0200 0000 73df 4229 c165 1aa5 091c 2ca3
000000b0: f47a ada0 d16d e090 008d 0193 9500 0080
000000c0: daa4 c694 fc69 c8b3 d833 0733 2d8e 89af
000000d0: d0ec 0eba 5936 1ab9 8548 bbba 95c9 09bb
000000e0: 106c 2bba b868 d7ba 1b49 8bb9 fcbc deb9
000000f0: 8baa 85ba ae6f 87ba 216e 8bbc 91f3 4ebb
00000100: ec1a bdbb cf66 84b9 b907 ac38 411f f0b9
00000110: 28fc c9b9 ebd6 e438 9352 87b9 702f 68b8
00000120: 558e 0fb8 0f98 e5b8 65d9 2fb9 4f85 85bb
00000130: ede9 bdba 228c 07bb a022 64ba 17db d7b8
00000140: ea9f 0abc b6bc 5cbc 0125 37bc d581 4abc
00000150: 8e35 76bb 1101 03bc 0409 e0bb 4f30 cbbb
00000160: 88af 00be 5e30 c5bd 64cb afbc 11c5 8db8
00000170: 2f56 a63a eff0 15ba 7ddd 823a 68a9 c23a
00000180: d859 543a a41f 153a f33d b539 9ae8 523b
00000190: a491 493a baa9 e5bb 7ea7 e2bc 1971 903b
000001a0: 44b8 84ba 9542 14ba cb92 4939 d763 0aba
000001b0: fd95 f5b9 bbee b03a 6f83 c739 1080 6439
000001c0: 7934 e9ba 2d8b 61ba 080b 92bc 7316 9fbb
000001d0: d975 83bc cbfa 81a3 a900 0000 3e8f eab3
000001e0: 14e2 f530 115b 8eb3 6a42 2cb4 0d95 c5ae
000001f0: 5c03 0dad da6b a4b0 b2fe 0432 643c 3a34
00000200: 1478 e6b5 5abd 98b6 2c01 0080 0d01 0000
00000210: 9e56 0000 db01 0080 d401 0080 9d01 0080
00000220: 7401 0080 7c01 0080 1801 0080 7e01 0080
00000230: 8b68 3ab1 2504 55ae 3307 389b 28c5 1fb8
00000240: 19f2 9c35 b71e 3c37 b267 b135 c0c1 b237
00000250: 39aa 3537 8e41 5836 fc27 adb6 ceb9 4437
00000260: 9bfb 3eb7 e64f a53a c9ae 0c39 d89a a339
00000270: 04f1 8dba 7e55 52ba 6b1a 02bb 9b32 c0bb
00000280: 1e0b 68bb 608d 85ba d8c5 54b9 17b6 1bbb
00000290: 5129 88bb b3ca 38bb 887a b1bc 3108 d2bb
000002a0: e14d 43bc 898d aebb 8bbc 3abb fadb 83bc
000002b0: 4dad cbbc 949e 4dbc 263b 9dbc b3b0 a6bb
000002c0: b8c7 34bc 8c74 70bc 2982 4bbc 1537 4bbe
000002d0: d57a a7bc 679c babd c800 0000 5a00 0080
000002e0: d600 0080 d800 0080 e500 0080 d800 0080
000002f0: ca00 0080 d800 0080 d100 0080 bf00 0080
00000300: 5b17 43aa 169f e297 783a d889 83ee 01b8
00000310: 9a85 8cb5 a37e 28b8 0363 24b8 2d48 fdb6
00000320: 28a5 9f37 d12a 35b7 684b 20b7 ee27 45b8
00000330: 5786 f4b7 58bc 593a a8ff 983a 2f17 40b9
00000340: cbad 82b7 be06 03b6 fdae dab7 0864 96b8
00000350: ae0c 18b8 e4a6 42b8 0a1b a6b7 e97c b4b7
00000360: 92c0 11b8 70ef 15b8 a35a 43ba ebc6 3bb7
00000370: f483 34b9 cf44 dc3a f793 553a f2b1 e73b
00000380: a4c0 473c 0791 cf3b 8f63 d43b 570e 1f3b
00000390: 86f3 cc3b 8007 d63b 754d a93b 07dd 9a3d
000003a0: b2e0 213c a5e0 223d cadf 003b 41ba 753a
000003b0: 0f84 a73b 3457 253c 2b83 af3b 4b30 cf3b
000003c0: 1ba8 cd3a da65 823b 7f35 d43b f547 a93b
000003d0: a1d3 733d 2589 193c c3ea c83c 6b68 47bb
000003e0: f059 9fb9 14f6 4fbc 5c3c 88bc 55c0 26bc
000003f0: 40bc 72bc 56d1 9ebb 098a 02bc 600f 00bc
-0.0043216283 -0.0028687255 -0.026084729 -0.03842749 -0.025210228 -0.031057453 -0.010276767 -0.022203824
-0.023622591 -0.019629724 -0.22869886 -0.08327745 -0.078461036 -1.6597217e-21 3.2545324e-20 -5.847953e-19
8.729533e-19 4.732892e-19 2.377228e-19 4.911117e-20 -3.940902e-19 7.1309315e-20 4.437046e-19 -1.643795e-07
-5.224066e-10 -1.8426134e-10 -2.3332306e-05 1.9932015e-05 0.00014767927 0.0002179345 0.00016551423 0.00015086865
5.061167e-05 0.00015668246 0.0001238073 0.000101473466 0.005089403 0.0014879172 0.0020383047 -1.86e-43
3e-45 4.3270465e-14 -1.3391846e-16 -9.330075e-18 -2.9388704e-19 -8.852162e-29 -1.6351607e-27 -2.09e-43
-2.0057913e-26 -9.332504e-08 3.147929e-08 -2.5021177e-10 -0.0005452158 -0.0001470683 -0.001428858 -0.0021024693
-0.0006539235 -0.0016434407 -0.00026566614 -0.00042483944 -0.001019792 -0.0010332966 -0.017020287 -0.0031578282
-0.0057710316 -0.000252536 8.2030376e-05 -0.00045799653 -0.0003852558 0.00010911919 -0.0002581073 -5.535729e-05
-3.4226414e-05 -0.00010947894 -0.00016770286 -0.0040747295 -0.0014489271 -0.002068289 -0.00087026693 -0.000102928076
-0.008460978 -0.013472727 -0.011178256 -0.012360056 -0.0037568542 -0.00799586 -0.0068370122 -0.006200827
-0.1256696 -0.09628366 -0.021459289 -6.7601104e-05 0.001269048 -0.0005719801 0.0009984222 0.0014851512
0.0008100546 0.0005688614 0.00034569166 0.0032182098 0.00076892436 -0.0070087584 -0.027667757 0.0044080135
-0.0010125716 -0.00056556734 0.00019223538 -0.00052791595 -0.00046841791 0.0013498882 0.00038054163 0.00021791481
-0.0017792127 -0.00086038077 -0.017827526 -0.004854971 -0.016047405 -1.4092423e-17 2.37e-43 -1.092253e-07
1.7890351e-09 -6.628955e-08 -1.604291e-07 -8.9849995e-11 -8.015668e-12 -1.1963224e-09 7.741322e-09 1.734457e-07
-1.7171283e-06 -4.5519964e-06 -4.2e-43 3.77e-43 3.1072e-41 -6.66e-43 -6.56e-43 -5.79e-43
-5.21e-43 -5.32e-43 -3.92e-43 -5.35e-43 -2.7125988e-09 -4.8434274e-11 -1.522245e-22 -3.809217e-05
1.1693365e-06 1.1212825e-05 1.3217707e-06 2.1309475e-05 1.0828074e-05 3.2224666e-06 -5.1604566e-06 1.1725771e-05
-1.1383464e-05 0.0012612313 0.00013416553 0.0003120515 -0.0010829275 -0.00080236036 -0.0019852172 -0.0058654076
-0.0035407017 -0.0010189228 -0.00020291598 -0.0023759657 -0.004155316 -0.002819699 -0.021664873 -0.006409668
-0.011920423 -0.005326931 -0.0028493728 -0.016096104 -0.02486291 -0.012550015 -0.019193243 -0.005086982
-0.011033945 -0.014676224 -0.012421169 -0.19845231 -0.020444313 -0.09111863 2.8e-43 -1.26e-43
-3e-43 -3.03e-43 -3.21e-43 -3.03e-43 -2.83e-43 -3.03e-43 -2.93e-43 -2.68e-43
-1.7327582e-13 -1.4645067e-24 -5.2055092e-33 -3.0978128e-05 -1.0469696e-06 -4.017226e-05 -3.919286e-05 -7.54839e-06
1.9031184e-05 -1.079841e-05 -9.5543e-06 -4.7005648e-05 -2.9149624e-05 0.00083059585 0.0011672871 -0.00018319183
-1.5578136e-05 -1.9524446e-06 -2.606911e-05 -7.17119e-05 -3.6251433e-05 -4.6408633e-05 -1.9801333e-05 -2.1515838e-05
-3.475004e-05 -3.5747362e-05 -0.00074521656 -1.1192383e-05 -0.00017215294 0.0016805175 0.00081473537 0.0070707733
0.012191925 0.0063344273 0.006481595 0.0024270022 0.006254616 0.006531656 0.0051667043 0.07561689
0.009880232 0.03976502 0.0019664639 0.00093737623 0.005112178 0.010091592 0.0053562126 0.0063228956
0.0015690358 0.003979427 0.006476104 0.0051660486 0.059527997 0.009371077 0.024526006 -0.0030427228
-0.00030393852 -0.012692947 -0.016630344 -0.0101776915 -0.01481539 -0.004846732 -0.00796748 -0.007816166
