GNN/NodeFeatEtaPhi_GraphFeatE/minpt20/saved_models/1_ax15minpt20_NNConv_onlyAny2bj_onlyAny1p.pt (torch, 187758 bytes, 37 tensors)

classify.0.weight f4 [64, 13]
000000 ee 6f ad be 4b 09 35 be fb 2a 38 be 01 99 45 be
       -0.33874458 -0.17679326 -0.17985146 -0.19296648
000010 0b 98 26 3e 6b 76 61 3b b6 a8 26 be d2 bb 85 34
       0.16268937 0.0034402858 -0.16275296 2.4909838e-07
000020 0c 6e ab bd 21 35 35 3e 7c 81 a3 3d 2a a8 a8 bc
       -0.08370599 0.17696048 0.079836816 -0.020588
000030 b3 ad 88 3d 7a c2 80 3c bb fc 9d be 1f a7 94 bd
       0.066737555 0.015717734 -0.3085688 -0.07258438
000040 7c d0 91 be fd 8d 66 bc 8b 03 a0 be 28 d5 65 3c
       -0.28479373 -0.014071939 -0.31252703 0.014027871
000050 d1 8a 85 3b ea a0 94 be 43 93 66 be 7b 12 54 bd
       0.004075386 -0.29029018 -0.22517113 -0.051775437
000060 0e 78 e6 3d 23 57 37 3d e9 ef f8 bd d3 2f 37 be
       0.11253367 0.044760834 -0.12155134 -0.17889337
000070 eb c6 b2 bc 26 5b b2 be 48 70 38 be 8e c7 83 be
       -0.021823367 -0.34835166 -0.18011582 -0.25738186
000080 ae 3c ca bb a8 2c c6 bb 4f a7 1e be ed 95 6e be
       -0.0061717844 -0.006047804 -0.1549351 -0.2329938
000090 99 fc ce 3d 1f 72 b4 bd 2b 30 e6 3d e1 df 86 be
       0.10106773 -0.08810829 0.11239656 -0.2634268
0000a0 c8 70 46 be 58 7e 99 be 77 7f dc bd 7d 2d dc 3e
       -0.1937896 -0.29979205 -0.107664995 0.43003455
0000b0 ba 96 3b be 3b 5f c0 3d c7 b8 98 b6 92 e0 c9 be
       -0.18319216 0.09393164 -4.551464e-06 -0.39429146
0000c0 1c e1 f1 3e 9e e6 3d 3d 27 1e 2b 3d cd 74 c7 3d
       0.47242057 0.04636251 0.041776802 0.09739075
0000d0 88 fd 1d 3d fb 92 8b 3d 1f c1 17 3e 5a 1f ff bd
       0.038571864 0.06815144 0.14819764 -0.12457152
0000e0 cc 60 8f bd bd 24 4f be b1 4a 94 bd db ab 36 b9
       -0.070008844 -0.20228858 -0.07240809 -0.00017420894
0000f0 c7 4b 8b bd 86 a1 14 3d ca 6e 6e 3d 3a 35 77 be
       -0.06801563 0.036286853 0.058211125 -0.24141398
000100 dd 8f b2 bd 76 56 39 ba db b6 be 3b 32 85 c2 bb
       -0.08718846 -0.00070700736 0.005820138 -0.0059362883
000110 7e 33 32 bc 6a 8a 11 00 f8 c5 f3 ba f1 0a 3d 80
       -0.0108765345 1.610857e-39 -0.0018598428 -5.60589e-39
000120 cc ae 0a 00 37 39 a7 3b d7 7a 40 00 e2 e8 16 bc
       9.8106e-40 0.005103256 5.921538e-39 -0.009210797
000130 36 bf d7 b3 a3 ae e6 b9 8f be 51 bc ae 61 61 bc
       -1.0046499e-07 -0.00043999133 -0.01280178 -0.013756199
000140 23 26 73 bc b9 72 9b bc 1d 1e 08 b7 f3 66 6f bc
       -0.0148406355 -0.018975602 -8.113243e-06 -0.014611947
000150 1d 9c d6 b9 6a 5f 24 00 da 84 43 bc 19 44 89 ba
       -0.00040933574 3.340306e-39 -0.01193353 -0.0010472565
000160 ee 50 b3 bc 08 1f f5 bb 32 ea 88 bc ee b8 0d bb
       -0.021889176 -0.007480506 -0.016713236 -0.002162512
000170 63 ba 92 be e9 71 7c be cb 38 30 3d fe 8d 14 be
       -0.28657827 -0.24652828 0.043022912 -0.1450729
000180 35 06 18 be c1 fb be 3c 72 68 e2 3b 1c e0 90 bd
       -0.14846118 0.023313405 0.0069094235 -0.070739955
000190 17 b7 2c bd a9 3c a8 3d 82 11 dd bd 6a 0d e3 bd
       -0.042166796 0.08214695 -0.10794355 -0.11086543
0001a0 5d 6b 16 3e 6a cb 1e 3e 69 e1 11 3d f8 f3 45 be
       0.14689393 0.15507284 0.03561536 -0.19331348
0001b0 29 52 c4 bd a7 49 a8 be 1b 62 76 be a7 0d 20 b9
       -0.09585983 -0.32868692 -0.24060862 -0.00015263875
0001c0 4c 35 df bd 5c 7b 5b 3c 93 c4 0b 3d e7 60 bf 3d
       -0.108988374 0.01339611 0.034123015 0.093446545
0001d0 d8 34 61 be e4 0c aa b3 21 30 94 b6 c8 2b 52 b7
       -0.21992815 -7.918587e-08 -4.4163467e-06 -1.2527169e-05
0001e0 38 c2 d6 b8 f7 26 29 00 c3 61 73 b7 83 56 0a 00
       -0.00010240491 3.779233e-39 -1.4506691e-05 9.4939e-40
0001f0 ee f0 22 80 15 b0 36 b5 bc 3a 9e a8 ed 82 21 bb
       -3.208836e-39 -6.8056517e-07 -1.7566996e-14 -0.0024644688
000200 fb 07 ae ba a0 58 2d b9 73 da d1 bb e8 10 3f ba
       -0.0013277525 -0.00016531581 -0.006404215 -0.0007288591
000210 07 58 f3 bb 7a 98 64 bb 4d 09 e4 ba 3f 2b 12 bc
       -0.007426265 -0.0034880922 -0.0017397791 -0.0089214435
000220 84 4d 1e bc f9 0a 18 00 5d 1c 9b ba 90 02 eb bb
       -0.009662036 2.207988e-39 -0.0011834014 -0.0071719363
000230 ec dd 8c bc 4d 9e 93 bc f4 5e fa bc e6 1f 0c be
       -0.017195664 -0.01801982 -0.030562855 -0.13684043
000240 d6 b4 e4 bc 81 1d af be 6f 3f 27 be c3 41 05 3e
       -0.02791826 -0.34202197 -0.16332792 0.13013367
000250 f2 45 3f bd f3 0a b7 bd ac 48 95 b6 7e 81 de 3c
       -0.046697564 -0.08937635 -4.449006e-06 0.027161356
000260 a6 f6 95 bd b0 93 a2 3d b9 97 83 be e7 0b 6d 3d
       -0.07322435 0.079383254 -0.25701693 0.05787268
000270 a1 c6 82 bd 9a 14 60 3c 5b aa 0f 3e 90 74 c5 3d
       -0.06385542 0.013676787 0.14029829 0.09641373
000280 45 f9 c0 3e 1e 27 d7 3d 97 30 a4 3e e5 da c1 ba
       0.37690178 0.10505508 0.3206832 -0.0014789967
000290 6b 0d f0 bd 4d 68 cc 3d 7b d0 f3 bd 89 35 3e be
       -0.11721309 0.09980831 -0.11904999 -0.1857511
0002a0 a6 ff c3 3d 74 91 56 3d 38 ea 4d bd de 97 53 be
       0.095702454 0.05238481 -0.050272197 -0.20663401
0002b0 90 2f 96 3e 90 18 b0 3e 6b 36 56 3e 9d 8b ae 3e
       0.29333162 0.3439374 0.20919196 0.3409089
0002c0 14 92 7e bc 2d 77 e1 bd fe 97 ba 3d 03 9b d7 bd
       -0.015537757 -0.11009059 0.091110215 -0.10527613
0002d0 15 92 84 be c4 41 af 3d e2 a9 35 3d e5 c6 da 3d
       -0.25892702 0.08557466 0.044351466 0.10682467
0002e0 45 0d 73 be 7a 0e 42 3a 28 6f 7e 3e 89 68 9f bd
       -0.2373553 0.000740267 0.2484709 -0.077836104
0002f0 37 9d cb 3e 67 d2 2b 3b f1 cf d5 3d 1b ec c3 bb
       0.39768383 0.002621794 0.10440052 -0.0059790737
000300 67 21 14 bd 8d c1 05 be c2 05 06 3e 03 4b 21 3e
       -0.036164667 -0.13062115 0.13088134 0.15751271
000310 48 07 88 bd 07 cd db bd 0c 60 2c be 81 91 0a 3f
       -0.06642014 -0.10732465 -0.16833514 0.5412827
000320 7c a3 2a be 74 74 03 3e 52 c9 e8 b9 3c 8e a0 3d
       -0.16663927 0.12837392 -0.00044400484 0.07839629
000330 9b 62 00 3f 01 6a e3 3b f2 34 2b 3b f2 3c 73 3c
       0.5015046 0.006940127 0.0026124087 0.014846073
000340 a9 3a 09 be fd 14 f4 3c 4b 1b 12 3e b3 4a 97 bc
       -0.13401283 0.029795164 0.14268224 -0.018468237
000350 fc 7f 97 3b 4f 93 63 3e 21 fc b2 bd 52 cd 4c bc
       0.004623411 0.22224163 -0.08739496 -0.012500124
000360 84 5d f2 bd 28 e6 fb 3d eb 06 ca bd 6b b7 63 3d
       -0.11834243 0.12299758 -0.09864601 0.055594843
000370 75 b6 77 be 2b bc a6 ba 63 a7 c0 ba 37 83 f6 ba
       -0.24190696 -0.0012720873 -0.0014698323 -0.0018807416
000380 c2 d1 b0 bb 51 6d b7 a0 2b 15 a9 ba 61 8c 04 a5
       -0.005396099 -3.1073745e-19 -0.0012899985 -1.1496737e-16
000390 87 d6 42 80 4b 91 91 ba 3a ef 66 b0 2c 2e 6a bc
       -6.1381e-39 -0.0011105923 -8.4013474e-10 -0.014293235
0003a0 bd 84 c3 bb 86 06 cb ba ad 26 d2 bc 0a d5 ae bc
       -0.0059667514 -0.0015489615 -0.025653208 -0.02134182
0003b0 f0 81 ee bc 79 d2 08 bd 69 7f 62 bb 98 70 cd bc
       -0.029114693 -0.033403847 -0.0034560806 -0.025078103
0003c0 04 be 97 ba 5d 90 24 80 b4 9b aa bc 6f cd 09 bc
       -0.0011577015 -3.357866e-39 -0.020826198 -0.008410796
0003d0 4e 96 12 bd ad b3 dc bb 9d 62 ea bc b5 db 82 3c
       -0.035787873 -0.006735286 -0.028611476 0.015973905
0003e0 6c 98 b3 3c 16 66 73 be c1 80 2a 3e 49 e6 5e bd
       0.021923266 -0.23769411 0.16650678 -0.054418836
0003f0 a3 46 35 3e 90 a3 3e 3e c1 14 46 3c 84 5f 65 bc
       0.17702727 0.18617082 0.012089909 -0.0139998235

classify.0.bias f4 [64]
000000 56 35 73 3c 48 01 ed bc 79 76 1f bb d7 5b 6d bc
       0.014844259 -0.028931275 -0.002433209 -0.014487228
000010 58 21 50 bb 3d 51 32 00 ab f9 09 9d f2 61 a0 bc
       -0.0031758156 4.620918e-39 -1.8260874e-21 -0.019577954
000020 5c d5 72 bc d1 16 13 00 5c a3 2f b1 35 8f 93 bc
       -0.014821377 1.75306e-39 -2.555871e-09 -0.018012622
000030 b2 54 40 3e 5e e7 bf 3d e5 d6 95 ba b6 2f 53 3d
       0.18782309 0.09370302 -0.0011431841 0.051559173
000040 11 dc df 3d ad 3e 13 80 8a 1b bc a1 db 66 ae 3e
       0.10930646 -1.767358e-39 -1.2746665e-18 0.34062847
000050 04 d6 f0 3c 80 15 69 3e c1 04 92 bc f3 ae 21 3e
       0.029398926 0.22762108 -0.017824532 0.15789394
000060 ef 77 12 3d 3c e4 36 bc 17 ff 8f 3e 7a 25 24 80
       0.03575891 -0.011162814 0.28124306 -3.319522e-39
000070 bc fd 14 80 59 29 b4 3c be fb 99 bd 4e 53 52 3e
       -1.927733e-39 0.021992372 -0.07518719 0.2053959
000080 1e e8 de 3e ae ea dd 3c a3 27 eb bc 0a 12 1b 00
       0.43536466 0.027089443 -0.028705424 2.48603e-39
000090 40 12 2f 80 63 bc 1c bd 88 a3 6a 3e 2c 7d 9b bd
       -4.322815e-39 -0.038265597 0.22913945 -0.07592234
0000a0 50 4b 02 80 fd d9 74 b1 c1 3e 88 bd 7b 3a d1 3d
       -2.10688e-40 -3.5630585e-09 -0.06652594 0.102162324
0000b0 c8 e1 98 1a 97 fb 29 80 98 0e d1 bb 10 81 2b 00
       6.3230496e-23 -3.855509e-39 -0.0063799135 3.995225e-39
0000c0 36 4d cb bd a3 04 9f 3d e3 38 1e 3c 62 3e 91 3d
       -0.09926836 0.07764556 0.009657118 0.07091977
0000d0 88 15 2a 00 0c 3c 03 00 8b 67 68 bd a5 60 f9 3d
       3.864815e-39 2.97047e-40 -0.05673937 0.121766366
0000e0 11 59 25 00 94 38 a3 3e 96 b3 ab 3b f7 79 a6 07
       3.429864e-39 0.31879103 0.005239914 2.5048588e-34
0000f0 ea b7 20 00 d0 1b b2 3e 4a bc 8e 3a 34 3d 3b 00
       3.004712e-39 0.34786844 0.0010889855 5.44025e-39

classify.3.weight f4 [1, 64]
000000 23 e9 6a 3b 88 da 49 3d 36 d0 b1 bc ea e9 e8 3b
       0.0035844527 0.049280673 -0.021705728 0.007107963
000010 82 79 75 bd 84 ec 48 b9 35 54 99 3c c5 9e 17 bd
       -0.059930332 -0.00019161595 0.01871691 -0.03701665
000020 33 82 2e 3c 25 bb 88 3b 95 35 92 3c 20 3f c3 3c
       0.010651159 0.0041727 0.017847816 0.023833811
000030 05 ca 92 3d 42 65 8f 3d f9 b4 ca 3d 34 4f ac 3c
       0.071674384 0.07001735 0.09897799 0.02103386
000040 68 5b 84 be 18 1b 44 3c fa da 7d 3c 82 ce 02 3e
       -0.25850987 0.01196935 0.015494103 0.12774089
000050 54 67 d7 bd ae 51 64 3d 33 f1 3b 3d c8 d2 b1 3d
       -0.10517755 0.05574196 0.045884322 0.086827815
000060 3a 64 9a bc 98 5d 10 3e 88 e5 4c be 5c 7b cc a7
       -0.01884662 0.14098203 -0.20009434 -5.675512e-15
000070 e3 f1 37 bc 4b 2b 25 bd 95 0e 03 bd 4a 80 5c bd
       -0.011227104 -0.04032449 -0.03199633 -0.053833283
000080 d2 1d 83 be 0b 80 cf bc d3 3f da bc 42 97 27 bc
       -0.2560869 -0.02532961 -0.026641762 -0.010228934
000090 84 7c 42 b7 e4 02 38 bd a3 fc 93 3d 18 8e aa bc
       -1.1592292e-05 -0.04492463 0.07225921 -0.020819709
0000a0 f6 ab da 3b 50 23 fc bc 24 bf b7 bc 8e 69 f4 bc
       0.0066733314 -0.030778557 -0.02243001 -0.029835489
0000b0 30 b4 81 9d d9 1b 3d 80 c9 17 2a bd 0c bc b2 bc
       -3.4332325e-21 -5.611955e-39 -0.04152659 -0.021818183
0000c0 ac 47 1a bc 1b 99 a0 3c b8 4a b8 3d 8c 76 d2 bc
       -0.009416502 0.019604256 0.089986265 -0.025691293
0000d0 78 53 16 80 a5 48 12 00 de a7 72 bd ba 13 2a bd
       -2.050324e-39 1.679099e-39 -0.059242122 -0.04152272
0000e0 fa fb 05 80 40 50 70 be 1d 7a 9a 3c 67 38 75 39
       -5.4957e-40 -0.23468113 0.018857056 0.00023386032
0000f0 d8 e8 68 3a 99 d9 c8 bd b5 85 93 bd de ad 4e 38
       0.0008884794 -0.098071285 -0.07203237 4.9276154e-05

lin0.weight f4 [10, 3]
000000 71 ef 01 bf 9a 1d 9e 3d 37 cc dc be 87 7d 5d be
       -0.50755984 0.0772049 -0.43124554 -0.21629916
000010 c0 72 04 bf f4 8a 1d 3f 38 26 d8 3e 8d cc 90 be
       -0.51737595 0.6154015 0.4221666 -0.2828106
000020 62 84 c1 3e 05 fb 3d 3e c6 c2 73 be c7 03 a8 3e
       0.37796313 0.18552788 -0.23804769 0.32815382
000030 5c 5b 61 3e a2 77 38 3f 32 b8 11 3f 22 c0 75 3e
       0.22007507 0.72057545 0.56921685 0.23999074
000040 90 7d 28 3f 54 0a af be 8e a1 ed be 4a 43 18 3f
       0.65816593 -0.34187567 -0.4641232 0.59477675
000050 ca 29 3a 3f 99 5f 63 be 98 fa 0f 3f 2a db 19 3e
       0.72720015 -0.22204436 0.5624175 0.1502501
000060 44 57 21 bb 01 dd 8a 3b f7 e0 16 bd cc ee 81 3e
       -0.0024618665 0.0042377715 -0.036835637 0.253775
000070 25 59 a9 3d 2d 2f be 3e
       0.08268956 0.37145367

lin0.bias f4 [10]
000000 be 8d ba bc 5c 9e 43 3f fb 73 a8 be 9c f8 11 3e
       -0.022772666 0.7641351 -0.32900986 0.14254993
000010 ab 16 07 3f 08 5a 9a be 9f 2c ef bd 25 dc 78 3e
       0.52768964 -0.30146813 -0.11678433 0.24302728
000020 1c f4 fb bc 2d b0 84 3c
       -0.030756049 0.016197288

edge_nn.0.weight f4 [128, 1]
000000 76 74 2c 3e 1e fa 75 bb ef da 93 be 2e 54 51 be
       0.16841301 -0.0037533115 -0.2887797 -0.20442268
000010 a3 b8 1b 3f 37 4d aa bd ed d4 3e 3f c6 ad ea bb
       0.6082861 -0.08315509 0.7454365 -0.0071618287
000020 52 dd 84 be 56 b5 26 bf 60 02 29 be 9a ce 0c 3f
       -0.25950104 -0.65120447 -0.16504812 0.5500275
000030 cd c0 55 3f dd af d2 3e 19 16 42 3e 6a da 3e be
       0.83497316 0.41149798 0.18953742 -0.18638006
000040 2c c9 a3 3e c2 07 36 3f d0 ed 83 3e 5a f2 26 3f
       0.3198942 0.7110559 0.25767374 0.6521355
000050 61 81 08 bc ea a1 22 3f ea 66 32 3f 07 c1 b1 3c
       -0.008331628 0.6352831 0.69688284 0.021698488
000060 f6 cd 2a 15 6f 02 e6 bd 72 a0 e3 3e 8a b7 3b 3f
       3.44937e-26 -0.11230933 0.44458348 0.73326933
000070 8f eb 90 be e5 e9 1c 3f 12 c9 00 bc 92 8a 1b 3f
       -0.28304717 0.61294395 -0.007860439 0.60758317
000080 1f de a8 ba 27 6a e0 3d 8f 5f 07 be e5 29 25 3f
       -0.001288358 0.10957747 -0.13220046 0.6451705
000090 5d 27 47 be 1e 44 61 be 29 69 f2 bc 03 bf 00 3f
       -0.1944861 -0.21998641 -0.02959116 0.5029146
0000a0 20 18 08 a6 39 e6 0a 3f e4 10 37 3f 4c e4 45 3f
       -4.7217174e-16 0.5425754 0.7151015 0.7730148
0000b0 3a bd 1d b5 29 7d d9 3e 2a 3e 80 8b f7 31 06 3f
       -5.876242e-07 0.42478302 -4.939734e-32 0.5241999
0000c0 00 77 08 3f 9d b9 79 3e 80 4a 90 be e0 29 40 3f
       0.5330658 0.24387212 -0.2818184 0.75063896
0000d0 f7 97 05 be ab 9d bc 3e 80 e2 47 3f 6d 6d 08 bb
       -0.13046251 0.3683904 0.78079987 -0.0020817176
0000e0 d6 74 a3 ba 47 89 e2 3e c9 88 cb 3e bb 6d 3a 3f
       -0.0012470733 0.4424536 0.39752796 0.72823685
0000f0 1c bb 19 bc 50 ef f3 3e 6f 24 41 3f c4 8e 64 3a
       -0.009382989 0.47643518 0.7544622 0.00087187835
000100 6e 45 a6 3b 46 29 33 bf 23 d8 43 3e a5 9f 48 3f
       0.0050741946 -0.69984853 0.19125418 0.783686
000110 f4 e3 16 3f 5f 8f 13 be e9 0d 42 3f a6 65 81 be
       0.5894158 -0.1441016 0.75802475 -0.25272864
000120 7f a1 b3 3e 3f 26 16 3f a9 b4 30 bc a9 8f 8a ac
       0.3508415 0.5865211 -0.01078526 -3.9381454e-12
000130 6a 5f 90 3e 68 5f b9 a1 45 78 d5 3e c1 03 04 be
       0.28197795 -1.2561341e-18 0.4169332 -0.12892057
000140 18 a0 0b 3f 2b b2 5e 3f 6d 7e 78 3f 4c 00 a8 3e
       0.5454116 0.8699061 0.9706791 0.32812726
000150 72 07 40 3f c9 55 99 ba 6e 72 48 3f 44 37 77 3f
       0.7501136 -0.001169854 0.78299606 0.96568704
000160 02 d4 79 3f 76 2e a2 bb a4 ee 39 3f b6 f2 39 98
       0.97589123 -0.004949386 0.7262976 -2.4033227e-24
000170 b8 23 2e 3f 5a 8f 23 bd 35 6d ff 87 71 df 0b ba
       0.6802325 -0.039931633 -3.8432322e-34 -0.00053357246
000180 44 01 62 3f d5 dc ef 89 1a a1 ca bb 0d 6e 2b 80
       0.8828318 -5.7744827e-33 -0.0061837556 -3.988405e-39
000190 57 65 1c bd 1a 3a de 3e 2d 83 48 3f 0c 72 28 bb
       -0.038182583 0.43403703 0.7832516 -0.0025702743
0001a0 68 bc a2 bd 3d dd 4c ab b1 44 66 bc 23 29 fe 3c
       -0.07946092 -7.278239e-13 -0.014054463 0.031025475
0001b0 b8 b1 90 be 9c 77 71 3c 4e 3f 05 bc c9 f8 45 3e
       -0.2826059 0.01473799 -0.008132769 0.19333185
0001c0 9c 1f 67 bc 69 ed 00 bc 87 3d 67 3f bd df 2c 3f
       -0.014106657 -0.007869103 0.9032826 0.675289
0001d0 d0 4a bd a4 e7 d4 58 be 72 16 a6 3d ce 45 34 3f
       -8.209242e-17 -0.21174966 0.0810975 0.70419014
0001e0 41 ea 10 3f c1 40 81 bc 39 88 7a bc 2d ee 99 3c
       0.56607443 -0.015777947 -0.015291267 0.018790329
0001f0 e6 84 93 be eb 39 a1 3e fb b4 5a 3f 13 53 82 be
       -0.2881233 0.314895 0.85432404 -0.25454006

edge_nn.0.bias f4 [128]
000000 f4 82 3c 3f a3 43 62 bb 32 f0 8c 3f 8d 02 4e 3f
       0.7363732 -0.0034525178 1.1010802 0.8047264
000010 a7 65 cf 3e 92 23 d0 3e a3 c8 c6 3e 81 d7 0b 3f
       0.40507242 0.40652138 0.3882495 0.5462571
000020 e1 38 6a 3f af 50 5a 3f 06 de 2c 3f 40 8b 29 3f
       0.9149304 0.85279363 0.6752628 0.66228104
000030 ad 0b c2 be f3 05 d4 be 58 80 6b 3f 3e 4e 53 3f
       -0.37899533 -0.4141079 0.9199271 0.82541263
000040 ee 42 38 3f 0d f7 92 bd a0 36 3d 3f 82 b9 a1 be
       0.71977127 -0.071760274 0.73911476 -0.31586844
000050 fc eb 25 bd 23 bb 3d be 96 f8 2f 3f b1 92 0a 3e
       -0.040508255 -0.18528418 0.6873869 0.13532521
000060 a1 0c a5 96 04 4f 6e 3f 32 c5 ce bd b8 0b 1b be
       -2.6665158e-25 0.9308932 -0.10096206 -0.15141189
000070 91 b3 75 3f 90 22 94 bd bd 1c 19 39 81 3a 92 3e
       0.9597712 -0.07233155 0.00014601923 0.2856026
000080 4b ad 63 bb f3 07 2c 3f 40 21 42 3f 3d b3 4b 3e
       -0.0034740742 0.6719963 0.75831985 0.19892593
000090 b1 b4 39 3f d5 31 43 3f c3 c0 71 bc 44 50 f6 3d
       0.7254134 0.7624791 -0.014755431 0.12027028
0000a0 eb b5 27 a5 10 73 b1 3b 62 06 b6 be 82 44 1c be
       -1.4546577e-16 0.005415328 -0.35551745 -0.15260509
0000b0 03 4f b7 aa 05 d0 16 be f4 9a 22 0a e2 11 f1 3e
       -3.2562156e-13 -0.1472779 7.82916e-33 0.47083956
0000c0 66 7e 6b be 3c 1c 2f 3e 94 0b 85 3f 94 55 18 3f
       -0.22997436 0.17100614 1.0394158 0.5950558
0000d0 76 f9 19 3f b0 55 c7 3e e5 e2 03 3f 3b 57 a7 38
       0.6014627 0.38932562 0.5151809 7.9794285e-05
0000e0 0e a1 03 ba 7e 84 b0 3e be 76 12 3f 7f ff a4 be
       -0.00050212524 0.34476084 0.57212436 -0.32226178
0000f0 a9 b1 f9 3e a9 bf 22 bf f0 67 ef 3e ac 91 34 3f
       0.48768356 -0.635737 0.46758986 0.7053478
000100 99 46 8e bc 3f 8f 51 3f c6 6d ea 3e 87 e3 b5 be
       -0.017367648 0.818592 0.45786875 -0.35525152
000110 8c 80 09 3e f6 23 14 3f 97 28 fa 3e 7e 4a 66 3f
       0.13427943 0.5786737 0.48859093 0.89957416
000120 e5 67 ff be f5 e9 12 3f cf 5a b5 ba a0 2b 60 a8
       -0.49883953 0.5738824 -0.0013836267 -1.24439575e-14
000130 23 4d d9 3c 1d 9a 93 a1 49 65 26 3e 0e 56 1e 3f
       0.02652604 -1.0001901e-18 0.16249575 0.6185006
000140 85 3b 89 be 5b fa 9e be 00 13 f2 be 91 87 e8 be
       -0.26803222 -0.3105038 -0.4728012 -0.4541593
000150 bc 3e c4 be 1b 56 75 b5 81 09 aa 3e 7b 20 dd be
       -0.38329113 -9.139491e-07 0.33210376 -0.43188843
000160 f5 f5 dc be cb 3f bc b8 0b 16 7c 3c be 80 6a 99
       -0.431564 -8.976421e-05 0.015386115 -1.2123516e-23
000170 ec 27 97 be d1 2f 8b 3d 0a eb 28 87 8d 51 8d b7
       -0.29522645 0.0679623 -1.2707987e-34 -1.6846485e-05
000180 66 ee bf be cf c9 b4 89 c6 2e 54 bb 3a 63 4a 80
       -0.3748657 -4.3523204e-33 -0.0032376512 -6.831422e-39
000190 15 53 bc bc 28 82 b5 3c d7 8c f5 3e 64 4f 42 bb
       -0.022988835 0.02215679 0.47959015 -0.0029649371
0001a0 87 89 c6 3e a2 f8 e7 aa c9 27 61 bc f6 55 08 3f
       0.387768 -4.1206367e-13 -0.013742396 0.53256166
0001b0 d3 66 83 3f 33 ba 32 3d cb 0e 26 3f 4c e6 3f 3f
       1.0265754 0.043634605 0.6486632 0.7496078
0001c0 e0 4e 89 3b ea 18 15 ba 8a a8 de be 46 39 e4 3e
       0.004190311 -0.00056876114 -0.4348796 0.44574946
0001d0 8b a7 23 a5 c4 4f 45 3f 65 8e 2e 3f 25 91 a1 be
       -1.4194762e-16 0.7707484 0.68186027 -0.3155605
0001e0 e9 12 67 3e 55 ad d2 bb 86 87 a6 bb 6e 5f 89 3f
       0.22565807 -0.006429354 -0.0050820736 1.0732248
0001f0 3e cd 81 3f 58 00 6b 3e 67 70 8f 3c 21 af 63 3f
       1.014076 0.2294935 0.017509652 0.889391

edge_nn.3.weight f4 [100, 128]
000000 c3 68 02 3d d3 34 3c 00 c7 7f ea bd 70 1c b1 bd
       0.03183819 5.52908e-39 -0.11450153 -0.08648002
000010 de 0a 36 3d 51 44 14 bd 0f 79 1a 3e 72 12 16 3b
       0.044443958 -0.036197964 0.15085243 0.0022899178
000020 98 db 4f bd 9c 4c 8f 3c 3e 33 87 bd 6d ce bc 3c
       -0.05074653 0.017492585 -0.066015705 0.02304765
000030 b0 db 50 3d 8b 8f 47 3d 61 0e 06 3e 4b b1 5c bd
       0.05099076 0.048720878 0.13091423 -0.053880017
000040 75 3e ee 3d e4 89 32 3e 8d 50 0e 3e 7c 6a 04 3e
       0.116330065 0.17435414 0.13897915 0.12931246
000050 6f ff 94 bc 60 c2 f6 3d 6f 20 d9 3c 23 07 56 bb
       -0.018188206 0.12048793 0.026504723 -0.0032658062
000060 26 3d 14 94 06 cb 0a 3d c5 fa b4 3d 56 8a 85 3d
       -7.48415e-27 0.033885024 0.08836893 0.06520526
000070 66 9a d4 bd 68 a1 ba 3d 97 fb e2 b3 80 f8 f3 3d
       -0.10381012 0.09112817 -1.0569709e-07 0.11912632
000080 48 ac 49 b6 e4 ee 99 3d 0d a5 1c bd a4 e9 20 3d
       -3.0051615e-06 0.07516268 -0.038243342 0.039285317
000090 79 e0 ad bd 17 02 5a bd 44 a7 73 b8 36 4e 77 3d
       -0.084900804 -0.05322465 -5.8091493e-05 0.060377322
0000a0 26 15 a3 24 53 37 c2 3d ee 35 cc 3d 85 77 d0 3d
       7.072581e-17 0.094832085 0.09971224 0.101790465
0000b0 f8 b0 75 05 45 6b 1d 3d dc bf 4d 88 94 b7 08 3e
       1.1552349e-35 0.03843238 -6.1915473e-34 0.1335128
0000c0 9b dd a3 3d bd e0 a6 3d ce 03 2c bd fc 70 09 3e
       0.08001252 0.08148334 -0.041995816 0.13422006
0000d0 03 e3 ac bd 43 cc 08 3e 43 7e cc 3d 97 dd 35 37
       -0.084417365 0.1335917 0.0998502 1.0840034e-05
0000e0 38 9e 75 10 cc ac 1e 3b 11 3f 6b 3d a7 4a c9 3d
       4.8439618e-29 0.0024211882 0.05743319 0.09828692
0000f0 98 7e 26 ba 0c be a2 3d a1 1e cc 3d ce af 4c bd
       -0.00063512614 0.07946405 0.099667795 -0.049972348
000100 91 eb 56 b9 c6 22 af 3b 70 af c8 3c 43 3d 9e 3d
       -0.00020496386 0.0053447215 0.024497718 0.077265285
000110 10 6a b2 3c ca 8e 1c bd 29 67 be 3d 17 65 c1 bd
       0.02177909 -0.03822211 0.0929702 -0.094431095
000120 bc 5f 57 3d 29 7d 42 3d e9 c3 49 0b 9c 23 4f ab
       0.052581534 0.047482643 3.8858578e-32 -7.359059e-13
000130 96 51 27 3e 06 46 05 a0 a9 74 27 3d c9 af 79 bc
       0.16339716 -1.1288707e-19 0.04088274 -0.015239664
000140 52 a3 7c 3d 82 1a 88 3d 49 8c 81 3d 8f 27 c0 3d
       0.061679192 0.06645681 0.063255854 0.09382545
000150 2f 47 de 3d 8b 15 8b 1a ee 04 68 3d d0 78 a4 3d
       0.10853421 5.752386e-23 0.056645326 0.08030856
000160 aa f8 29 3e 7d 90 cd a1 2e a8 ab 3d 1a 7b dd 17
       0.16598764 -1.3929586e-18 0.08381687 1.4312865e-24
000170 57 3c 72 3d 44 03 df 3a 32 5c d2 84 da 01 c9 36
       0.059139576 0.0017014523 -4.945543e-36 5.9904824e-06
000180 a0 a6 c6 3d 66 ee 50 86 82 dd 59 23 1f 70 19 00
       0.0969975 -3.92956e-35 1.18105e-17 2.336109e-39
000190 22 17 ec b6 6d b9 9c 3c 82 11 e3 3d 64 b8 ad 06
       -7.036041e-06 0.019131387 0.11087324 6.5346305e-35
0001a0 aa 4f 81 bc cf 73 1b a8 ef 05 83 ac ce c5 ec bb
       -0.015785057 -8.6293404e-15 -3.7239027e-12 -0.0072257286
0001b0 33 63 4a bd 13 b3 97 bb 49 7d 73 3d ef 1b 2f 3d
       -0.04941101 -0.0046295016 0.059445653 0.04275125
0001c0 4d 5c 13 b8 da 71 c4 21 5c 9a 84 3d 34 60 9d 3d
       -3.5133493e-05 1.3311613e-18 0.06474754 0.07684365
0001d0 7a 61 61 a2 90 df 82 bd c7 cb 8c 3c 90 fb ad 3d
       -3.054479e-18 -0.063902974 0.017187012 0.08495247
0001e0 20 54 78 3c 1c 37 8a 93 fc a5 99 b7 3f 24 e0 3c
       0.015156776 -3.489044e-27 -1.8316314e-05 0.027361033
0001f0 ae d2 ad bd df 3f c4 3d 46 f8 ff 3d f3 9f eb bd
       -0.084874496 0.09582495 0.12498526 -0.11505117
000200 92 12 54 bd a7 5f 2e 00 5c 3f fa bb 0b ff 78 bc
       -0.051775523 4.258746e-39 -0.0076369476 -0.015197526
000210 b0 38 f2 bb e5 f6 be 3b 2b f6 63 bd 3f 94 39 3b
       -0.0073920116 0.005827772 -0.055654686 0.0028317121
000220 ca a3 8d bc 83 36 0a 3a ed 88 94 bc 5d 9a d1 3c
       -0.017290015 0.0005272405 -0.018131698 0.025586301
000230 c2 d4 22 bd f3 20 8d bc 5e 44 2f bd 77 a3 e0 bc
       -0.039753683 -0.017227625 -0.04278981 -0.027421696
000240 0f f7 ca ba 2f d3 79 3c 32 e2 76 bb 0e 0f 39 bd
       -0.0015485006 0.015248104 -0.0037671444 -0.045180373
000250 24 71 c8 bb 41 32 1f 3c e6 81 dd bd 73 05 1f 3b
       -0.006117003 0.009716571 -0.10815792 0.0024264723
000260 3c 69 31 94 4c a6 80 bc f0 3b 49 bc 06 0c 9d ba
       -8.95697e-27 -0.015704297 -0.012282357 -0.0011981733
000270 9c 71 91 ba 0e 92 0e 3d 07 6f 12 0f 4e 4c 04 3c
       -0.001109648 0.034807257 7.219739e-30 0.008074833
000280 fa c2 4c b7 ba d8 fc 3c b9 98 cf bc 2d aa 30 3d
       -1.2204744e-05 0.030865062 -0.025341379 0.043131042
000290 16 ec 4d bc 25 7e ac bc ec 1c d8 b1 e9 45 f5 ba
       -0.012568494 -0.021056244 -6.2897154e-09 -0.0018712851
0002a0 0e fa d1 a2 e0 da c6 bc be c0 1f bd d8 21 91 bc
       -5.691432e-18 -0.02427429 -0.039002173 -0.017716333
0002b0 29 aa 0e 85 aa 48 45 3c 70 f3 e8 06 13 99 c8 bc
       -6.7080614e-36 0.01204125 8.76264e-35 -0.024487054
0002c0 a2 bf 2d ba 65 5a 4e 3a 1f 86 78 bc 58 71 05 3d
       -0.0006627982 0.0007871746 -0.015168696 0.032578796
0002d0 32 c2 d1 bc 12 24 cc 3a 79 c2 e5 bc f0 2e 0b 33
       -0.025605295 0.0015574715 -0.028046833 3.240615e-08
0002e0 03 7e 0f 80 a0 cb c8 bc 63 82 63 bc 74 1a 45 bd
       -1.422737e-39 -0.024511158 -0.013886067 -0.04812093
0002f0 01 24 03 bc 3e fa cb 3b af 94 a2 bc 76 5a 66 bc
       -0.0080041895 0.0062248996 -0.019846288 -0.0140596535
000300 5c ce 6c 39 28 c1 39 38 7d 78 08 bd 95 d4 3e bd
       0.00022583589 4.4287328e-05 -0.03331803 -0.046589453
000310 75 b5 09 bd b7 a1 a8 ba e6 90 3c bc e8 b6 95 bc
       -0.033620317 -0.0012865578 -0.011509156 -0.018275693
000320 74 76 5b 3c ba 99 5c bd 64 02 06 00 06 af 97 aa
       0.013394941 -0.053857543 5.5187e-40 -2.6944435e-13
000330 ff e7 83 bc 64 cf d9 20 24 62 6e bc ce fa 0d 3c
       -0.016101835 3.689847e-19 -0.014549766 0.0086657535
000340 c8 ad 08 3d 3b 4d 4c bc 7d 9c 17 bd 8f 2d d8 bc
       0.033368856 -0.012469585 -0.037014473 -0.026388912
000350 af 48 5f bd 57 15 30 19 1a fb b8 bc df 74 1c 3c
       -0.054512676 9.103296e-24 -0.022580672 0.009549349
000360 c7 1a fe 3c be 31 e6 9f 9f a0 0a bd ec 09 b4 17
       0.031018628 -9.749108e-20 -0.033844586 1.1634732e-24
000370 aa 1f ca bc 10 03 1f 39 f9 0f f5 03 20 89 28 b7
       -0.024673302 0.00015164563 1.4403473e-36 -1.0045507e-05
000380 08 ef 7f 3d bc 66 4b 07 28 43 1b a3 3a 4e 09 00
       0.062483817 1.5302214e-34 -8.416788e-18 8.54582e-40
000390 69 be 00 b6 6c e4 9b 3c f8 09 a0 bc 32 1b 25 87
       -1.918432e-06 0.019029818 -0.019536003 -1.2421212e-34
0003a0 8b 90 0b 3c 0f d1 81 28 d8 a0 75 ac 5b dc bb 3b
       0.008518348 1.4412542e-14 -3.490588e-12 0.0057330555
0003b0 b6 5c e4 3a ba 2d 04 3c 2c f7 d6 bc 37 2d 48 bd
       0.001742265 0.008067543 -0.026240908 -0.048871245
0003c0 06 04 11 32 71 bc c1 21 68 c3 68 bc c6 78 e0 3c
       8.441026e-09 1.3128069e-18 -0.014206745 0.02740134
0003d0 2c 04 81 21 f9 8f 16 bc 7c d1 08 bd b7 5d 52 bc
       8.742484e-19 -0.009189599 -0.033402905 -0.012839726
0003e0 b4 69 3b bc a3 83 96 13 f7 33 c6 33 79 b3 25 bc
       -0.011438776 3.7995127e-27 9.229546e-08 -0.01011359
0003f0 09 3a 30 bc 1a fa 9d 3c a5 ba 37 bd 0c af 9e bc
       -0.010756024 0.019284297 -0.044855732 -0.019370578

edge_nn.3.bias f4 [100]
000000 60 7b da bc 7e 47 2e bb 66 6d 10 bd 97 72 61 3d
       -0.026670158 -0.0026592906 -0.03526058 0.055040922
000010 64 98 fc bc 58 24 0f 3d d0 1b e5 3a e5 fe 54 aa
       -0.030834384 0.03494677 0.0017479602 -1.8917817e-13
000020 14 29 81 3c 2c 52 d4 3d ea 29 53 be 16 cf 48 3d
       0.015766658 0.103672355 -0.20621458 0.049025618
000030 04 63 74 3e 76 82 92 3d af b4 ce 3d 91 a9 e7 3e
       0.23865896 0.0715379 0.100930564 0.45246556
000040 d8 aa 8c 3e 3c 78 1c bb 26 b7 73 3b 49 0f 66 3e
       0.27474093 -0.0023875376 0.0037188022 0.22466768
000050 db 65 93 3c 3c fb 9a 3c d8 e1 e9 3c 31 39 ae bb
       0.017992904 0.018918626 0.028550074 -0.0053168763
000060 ac 23 a9 3d d1 01 a4 3d fb a2 b5 3d 9c c4 23 b8
       0.08258757 0.08008159 0.08868977 -3.9045335e-05
000070 df 11 24 3d 70 38 52 3e a1 96 e2 bd 32 06 af bc
       0.040056106 0.20529342 -0.110638864 -0.021365259
000080 40 f7 e5 3d da 7b 8c 3d 6a 7f 45 3e b1 61 93 3e
       0.112288 0.0685956 0.19286886 0.2878547
000090 3f ca 5c 3e 44 c3 26 b9 56 ed 2e bc 08 0b 88 3e
       0.21561526 -0.00015903736 -0.0106767025 0.26570916
0000a0 30 ad 45 be c3 10 6a bd 0b b0 60 3e ed f0 c3 3d
       -0.19304347 -0.05714489 0.21942155 0.09567437
0000b0 da eb 95 3e bc 61 91 3e ed 6f 60 bd 60 2c 13 ba
       0.29281503 0.28394878 -0.05479424 -0.00056142174
0000c0 ef 1e 2c 3d f4 05 c9 3e 3e 07 d6 3c 81 bc 1d bd
       0.042021688 0.39262354 0.0261265 -0.03850985
0000d0 ab 67 32 3e 6d ad 25 bd 99 02 77 bd 7a 30 a5 3d
       0.17422359 -0.040448595 -0.06030521 0.08065887
0000e0 ca b7 3f ba c0 e9 aa b2 f1 0c a9 bd 22 7e a1 3d
       -0.00073134585 -1.9896902e-08 -0.082544215 0.07885386
0000f0 bf 6c a2 bd 08 6b e6 3c 7b 0b 89 3d 33 e2 2d 3e
       -0.07930898 0.028127208 0.06691643 0.1698082
000100 40 c4 79 3e 1a 94 83 3e 60 b6 32 be a4 f2 bd b7
       0.2439127 0.2569893 -0.17452383 -2.2643544e-05
000110 38 20 71 ba c5 0f 7e 3e 91 89 c1 bd 94 29 d5 bc
       -0.00091982214 0.24810703 -0.09450067 -0.026020803
000120 fb 48 04 3e 24 06 f7 3d 35 fe 45 3e 70 78 71 3e
       0.12918465 0.12061718 0.19335254 0.235811
000130 7d 5e 98 bd 47 d6 fa b7 a9 13 8b bd de cb 6e 3e
       -0.07439897 -2.9902103e-05 -0.06790859 0.23319957
000140 fe e8 00 80 53 b9 43 80 3e f4 21 07 cf 50 03 80
       -8.3582e-41 -6.21946e-39 1.218407e-34 -3.04495e-40
000150 2f b4 f9 21 28 a1 32 25 98 c5 4e 31 a4 b2 75 81
       1.692059e-18 1.5493641e-16 3.0089264e-09 -4.5127561e-38
000160 9c a6 9f 07 92 0d eb 84 6e ef 5a be 9b c3 8b bc
       2.4021585e-34 -5.5260697e-36 -0.21380398 -0.017061045
000170 3b 64 21 3e 71 27 00 bd 58 31 72 3e 4b fe 7b 3e
       0.15760891 -0.031287614 0.23651636 0.24608724
000180 ae 71 61 3d c0 d7 9f b4 c1 6e 9d 3d dd e3 85 3e
       0.055040054 -2.9773037e-07 0.0768714 0.26150408

conv1.bias f4 [10]
000000 79 9b 64 be 7f 7a 1d bd f1 9a 38 3e d5 a7 13 3e
       -0.22324933 -0.0384469 0.18027855 0.14419492
000010 1c 17 25 3e b5 b6 c6 3e 94 d2 9f 3e c9 6b 04 bb
       0.16122097 0.3881127 0.31215346 -0.0020205847
000020 86 28 07 bd 65 de af 3e
       -0.03299763 0.3434936

conv1.nn.0.weight f4 [128, 1]
000000 76 74 2c 3e 1e fa 75 bb ef da 93 be 2e 54 51 be
       0.16841301 -0.0037533115 -0.2887797 -0.20442268
000010 a3 b8 1b 3f 37 4d aa bd ed d4 3e 3f c6 ad ea bb
       0.6082861 -0.08315509 0.7454365 -0.0071618287
000020 52 dd 84 be 56 b5 26 bf 60 02 29 be 9a ce 0c 3f
       -0.25950104 -0.65120447 -0.16504812 0.5500275
000030 cd c0 55 3f dd af d2 3e 19 16 42 3e 6a da 3e be
       0.83497316 0.41149798 0.18953742 -0.18638006
000040 2c c9 a3 3e c2 07 36 3f d0 ed 83 3e 5a f2 26 3f
       0.3198942 0.7110559 0.25767374 0.6521355
000050 61 81 08 bc ea a1 22 3f ea 66 32 3f 07 c1 b1 3c
       -0.008331628 0.6352831 0.69688284 0.021698488
000060 f6 cd 2a 15 6f 02 e6 bd 72 a0 e3 3e 8a b7 3b 3f
       3.44937e-26 -0.11230933 0.44458348 0.73326933
000070 8f eb 90 be e5 e9 1c 3f 12 c9 00 bc 92 8a 1b 3f
       -0.28304717 0.61294395 -0.007860439 0.60758317
000080 1f de a8 ba 27 6a e0 3d 8f 5f 07 be e5 29 25 3f
       -0.001288358 0.10957747 -0.13220046 0.6451705
000090 5d 27 47 be 1e 44 61 be 29 69 f2 bc 03 bf 00 3f
       -0.1944861 -0.21998641 -0.02959116 0.5029146
0000a0 20 18 08 a6 39 e6 0a 3f e4 10 37 3f 4c e4 45 3f
       -4.7217174e-16 0.5425754 0.7151015 0.7730148
0000b0 3a bd 1d b5 29 7d d9 3e 2a 3e 80 8b f7 31 06 3f
       -5.876242e-07 0.42478302 -4.939734e-32 0.5241999
0000c0 00 77 08 3f 9d b9 79 3e 80 4a 90 be e0 29 40 3f
       0.5330658 0.24387212 -0.2818184 0.75063896
0000d0 f7 97 05 be ab 9d bc 3e 80 e2 47 3f 6d 6d 08 bb
       -0.13046251 0.3683904 0.78079987 -0.0020817176
0000e0 d6 74 a3 ba 47 89 e2 3e c9 88 cb 3e bb 6d 3a 3f
       -0.0012470733 0.4424536 0.39752796 0.72823685
0000f0 1c bb 19 bc 50 ef f3 3e 6f 24 41 3f c4 8e 64 3a
       -0.009382989 0.47643518 0.7544622 0.00087187835
000100 6e 45 a6 3b 46 29 33 bf 23 d8 43 3e a5 9f 48 3f
       0.0050741946 -0.69984853 0.19125418 0.783686
000110 f4 e3 16 3f 5f 8f 13 be e9 0d 42 3f a6 65 81 be
       0.5894158 -0.1441016 0.75802475 -0.25272864
000120 7f a1 b3 3e 3f 26 16 3f a9 b4 30 bc a9 8f 8a ac
       0.3508415 0.5865211 -0.01078526 -3.9381454e-12
000130 6a 5f 90 3e 68 5f b9 a1 45 78 d5 3e c1 03 04 be
       0.28197795 -1.2561341e-18 0.4169332 -0.12892057
000140 18 a0 0b 3f 2b b2 5e 3f 6d 7e 78 3f 4c 00 a8 3e
       0.5454116 0.8699061 0.9706791 0.32812726
000150 72 07 40 3f c9 55 99 ba 6e 72 48 3f 44 37 77 3f
       0.7501136 -0.001169854 0.78299606 0.96568704
000160 02 d4 79 3f 76 2e a2 bb a4 ee 39 3f b6 f2 39 98
       0.97589123 -0.004949386 0.7262976 -2.4033227e-24
000170 b8 23 2e 3f 5a 8f 23 bd 35 6d ff 87 71 df 0b ba
       0.6802325 -0.039931633 -3.8432322e-34 -0.00053357246
000180 44 01 62 3f d5 dc ef 89 1a a1 ca bb 0d 6e 2b 80
       0.8828318 -5.7744827e-33 -0.0061837556 -3.988405e-39
000190 57 65 1c bd 1a 3a de 3e 2d 83 48 3f 0c 72 28 bb
       -0.038182583 0.43403703 0.7832516 -0.0025702743
0001a0 68 bc a2 bd 3d dd 4c ab b1 44 66 bc 23 29 fe 3c
       -0.07946092 -7.278239e-13 -0.014054463 0.031025475
0001b0 b8 b1 90 be 9c 77 71 3c 4e 3f 05 bc c9 f8 45 3e
       -0.2826059 0.01473799 -0.008132769 0.19333185
0001c0 9c 1f 67 bc 69 ed 00 bc 87 3d 67 3f bd df 2c 3f
       -0.014106657 -0.007869103 0.9032826 0.675289
0001d0 d0 4a bd a4 e7 d4 58 be 72 16 a6 3d ce 45 34 3f
       -8.209242e-17 -0.21174966 0.0810975 0.70419014
0001e0 41 ea 10 3f c1 40 81 bc 39 88 7a bc 2d ee 99 3c
       0.56607443 -0.015777947 -0.015291267 0.018790329
0001f0 e6 84 93 be eb 39 a1 3e fb b4 5a 3f 13 53 82 be
       -0.2881233 0.314895 0.85432404 -0.25454006

conv1.nn.0.bias f4 [128]
000000 f4 82 3c 3f a3 43 62 bb 32 f0 8c 3f 8d 02 4e 3f
       0.7363732 -0.0034525178 1.1010802 0.8047264
000010 a7 65 cf 3e 92 23 d0 3e a3 c8 c6 3e 81 d7 0b 3f
       0.40507242 0.40652138 0.3882495 0.5462571
000020 e1 38 6a 3f af 50 5a 3f 06 de 2c 3f 40 8b 29 3f
       0.9149304 0.85279363 0.6752628 0.66228104
000030 ad 0b c2 be f3 05 d4 be 58 80 6b 3f 3e 4e 53 3f
       -0.37899533 -0.4141079 0.9199271 0.82541263
000040 ee 42 38 3f 0d f7 92 bd a0 36 3d 3f 82 b9 a1 be
       0.71977127 -0.071760274 0.73911476 -0.31586844
000050 fc eb 25 bd 23 bb 3d be 96 f8 2f 3f b1 92 0a 3e
       -0.040508255 -0.18528418 0.6873869 0.13532521
000060 a1 0c a5 96 04 4f 6e 3f 32 c5 ce bd b8 0b 1b be
       -2.6665158e-25 0.9308932 -0.10096206 -0.15141189
000070 91 b3 75 3f 90 22 94 bd bd 1c 19 39 81 3a 92 3e
       0.9597712 -0.07233155 0.00014601923 0.2856026
000080 4b ad 63 bb f3 07 2c 3f 40 21 42 3f 3d b3 4b 3e
       -0.0034740742 0.6719963 0.75831985 0.19892593
000090 b1 b4 39 3f d5 31 43 3f c3 c0 71 bc 44 50 f6 3d
       0.7254134 0.7624791 -0.014755431 0.12027028
0000a0 eb b5 27 a5 10 73 b1 3b 62 06 b6 be 82 44 1c be
       -1.4546577e-16 0.005415328 -0.35551745 -0.15260509
0000b0 03 4f b7 aa 05 d0 16 be f4 9a 22 0a e2 11 f1 3e
       -3.2562156e-13 -0.1472779 7.82916e-33 0.47083956
0000c0 66 7e 6b be 3c 1c 2f 3e 94 0b 85 3f 94 55 18 3f
       -0.22997436 0.17100614 1.0394158 0.5950558
0000d0 76 f9 19 3f b0 55 c7 3e e5 e2 03 3f 3b 57 a7 38
       0.6014627 0.38932562 0.5151809 7.9794285e-05
0000e0 0e a1 03 ba 7e 84 b0 3e be 76 12 3f 7f ff a4 be
       -0.00050212524 0.34476084 0.57212436 -0.32226178
0000f0 a9 b1 f9 3e a9 bf 22 bf f0 67 ef 3e ac 91 34 3f
       0.48768356 -0.635737 0.46758986 0.7053478
000100 99 46 8e bc 3f 8f 51 3f c6 6d ea 3e 87 e3 b5 be
       -0.017367648 0.818592 0.45786875 -0.35525152
000110 8c 80 09 3e f6 23 14 3f 97 28 fa 3e 7e 4a 66 3f
       0.13427943 0.5786737 0.48859093 0.89957416
000120 e5 67 ff be f5 e9 12 3f cf 5a b5 ba a0 2b 60 a8
       -0.49883953 0.5738824 -0.0013836267 -1.24439575e-14
000130 23 4d d9 3c 1d 9a 93 a1 49 65 26 3e 0e 56 1e 3f
       0.02652604 -1.0001901e-18 0.16249575 0.6185006
000140 85 3b 89 be 5b fa 9e be 00 13 f2 be 91 87 e8 be
       -0.26803222 -0.3105038 -0.4728012 -0.4541593
000150 bc 3e c4 be 1b 56 75 b5 81 09 aa 3e 7b 20 dd be
       -0.38329113 -9.139491e-07 0.33210376 -0.43188843
000160 f5 f5 dc be cb 3f bc b8 0b 16 7c 3c be 80 6a 99
       -0.431564 -8.976421e-05 0.015386115 -1.2123516e-23
000170 ec 27 97 be d1 2f 8b 3d 0a eb 28 87 8d 51 8d b7
       -0.29522645 0.0679623 -1.2707987e-34 -1.6846485e-05
000180 66 ee bf be cf c9 b4 89 c6 2e 54 bb 3a 63 4a 80
       -0.3748657 -4.3523204e-33 -0.0032376512 -6.831422e-39
000190 15 53 bc bc 28 82 b5 3c d7 8c f5 3e 64 4f 42 bb
       -0.022988835 0.02215679 0.47959015 -0.0029649371
0001a0 87 89 c6 3e a2 f8 e7 aa c9 27 61 bc f6 55 08 3f
       0.387768 -4.1206367e-13 -0.013742396 0.53256166
0001b0 d3 66 83 3f 33 ba 32 3d cb 0e 26 3f 4c e6 3f 3f
       1.0265754 0.043634605 0.6486632 0.7496078
0001c0 e0 4e 89 3b ea 18 15 ba 8a a8 de be 46 39 e4 3e
       0.004190311 -0.00056876114 -0.4348796 0.44574946
0001d0 8b a7 23 a5 c4 4f 45 3f 65 8e 2e 3f 25 91 a1 be
       -1.4194762e-16 0.7707484 0.68186027 -0.3155605
0001e0 e9 12 67 3e 55 ad d2 bb 86 87 a6 bb 6e 5f 89 3f
       0.22565807 -0.006429354 -0.0050820736 1.0732248
0001f0 3e cd 81 3f 58 00 6b 3e 67 70 8f 3c 21 af 63 3f
       1.014076 0.2294935 0.017509652 0.889391

conv1.nn.3.weight f4 [100, 128]
000000 c3 68 02 3d d3 34 3c 00 c7 7f ea bd 70 1c b1 bd
       0.03183819 5.52908e-39 -0.11450153 -0.08648002
000010 de 0a 36 3d 51 44 14 bd 0f 79 1a 3e 72 12 16 3b
       0.044443958 -0.036197964 0.15085243 0.0022899178
000020 98 db 4f bd 9c 4c 8f 3c 3e 33 87 bd 6d ce bc 3c
       -0.05074653 0.017492585 -0.066015705 0.02304765
000030 b0 db 50 3d 8b 8f 47 3d 61 0e 06 3e 4b b1 5c bd
       0.05099076 0.048720878 0.13091423 -0.053880017
000040 75 3e ee 3d e4 89 32 3e 8d 50 0e 3e 7c 6a 04 3e
       0.116330065 0.17435414 0.13897915 0.12931246
000050 6f ff 94 bc 60 c2 f6 3d 6f 20 d9 3c 23 07 56 bb
       -0.018188206 0.12048793 0.026504723 -0.0032658062
000060 26 3d 14 94 06 cb 0a 3d c5 fa b4 3d 56 8a 85 3d
       -7.48415e-27 0.033885024 0.08836893 0.06520526
000070 66 9a d4 bd 68 a1 ba 3d 97 fb e2 b3 80 f8 f3 3d
       -0.10381012 0.09112817 -1.0569709e-07 0.11912632
000080 48 ac 49 b6 e4 ee 99 3d 0d a5 1c bd a4 e9 20 3d
       -3.0051615e-06 0.07516268 -0.038243342 0.039285317
000090 79 e0 ad bd 17 02 5a bd 44 a7 73 b8 36 4e 77 3d
       -0.084900804 -0.05322465 -5.8091493e-05 0.060377322
0000a0 26 15 a3 24 53 37 c2 3d ee 35 cc 3d 85 77 d0 3d
       7.072581e-17 0.094832085 0.09971224 0.101790465
0000b0 f8 b0 75 05 45 6b 1d 3d dc bf 4d 88 94 b7 08 3e
       1.1552349e-35 0.03843238 -6.1915473e-34 0.1335128
0000c0 9b dd a3 3d bd e0 a6 3d ce 03 2c bd fc 70 09 3e
       0.08001252 0.08148334 -0.041995816 0.13422006
0000d0 03 e3 ac bd 43 cc 08 3e 43 7e cc 3d 97 dd 35 37
       -0.084417365 0.1335917 0.0998502 1.0840034e-05
0000e0 38 9e 75 10 cc ac 1e 3b 11 3f 6b 3d a7 4a c9 3d
       4.8439618e-29 0.0024211882 0.05743319 0.09828692
0000f0 98 7e 26 ba 0c be a2 3d a1 1e cc 3d ce af 4c bd
       -0.00063512614 0.07946405 0.099667795 -0.049972348
000100 91 eb 56 b9 c6 22 af 3b 70 af c8 3c 43 3d 9e 3d
       -0.00020496386 0.0053447215 0.024497718 0.077265285
000110 10 6a b2 3c ca 8e 1c bd 29 67 be 3d 17 65 c1 bd
       0.02177909 -0.03822211 0.0929702 -0.094431095
000120 bc 5f 57 3d 29 7d 42 3d e9 c3 49 0b 9c 23 4f ab
       0.052581534 0.047482643 3.8858578e-32 -7.359059e-13
000130 96 51 27 3e 06 46 05 a0 a9 74 27 3d c9 af 79 bc
       0.16339716 -1.1288707e-19 0.04088274 -0.015239664
000140 52 a3 7c 3d 82 1a 88 3d 49 8c 81 3d 8f 27 c0 3d
       0.061679192 0.06645681 0.063255854 0.09382545
000150 2f 47 de 3d 8b 15 8b 1a ee 04 68 3d d0 78 a4 3d
       0.10853421 5.752386e-23 0.056645326 0.08030856
000160 aa f8 29 3e 7d 90 cd a1 2e a8 ab 3d 1a 7b dd 17
       0.16598764 -1.3929586e-18 0.08381687 1.4312865e-24
000170 57 3c 72 3d 44 03 df 3a 32 5c d2 84 da 01 c9 36
       0.059139576 0.0017014523 -4.945543e-36 5.9904824e-06
000180 a0 a6 c6 3d 66 ee 50 86 82 dd 59 23 1f 70 19 00
       0.0969975 -3.92956e-35 1.18105e-17 2.336109e-39
000190 22 17 ec b6 6d b9 9c 3c 82 11 e3 3d 64 b8 ad 06
       -7.036041e-06 0.019131387 0.11087324 6.5346305e-35
0001a0 aa 4f 81 bc cf 73 1b a8 ef 05 83 ac ce c5 ec bb
       -0.015785057 -8.6293404e-15 -3.7239027e-12 -0.0072257286
0001b0 33 63 4a bd 13 b3 97 bb 49 7d 73 3d ef 1b 2f 3d
       -0.04941101 -0.0046295016 0.059445653 0.04275125
0001c0 4d 5c 13 b8 da 71 c4 21 5c 9a 84 3d 34 60 9d 3d
       -3.5133493e-05 1.3311613e-18 0.06474754 0.07684365
0001d0 7a 61 61 a2 90 df 82 bd c7 cb 8c 3c 90 fb ad 3d
       -3.054479e-18 -0.063902974 0.017187012 0.08495247
0001e0 20 54 78 3c 1c 37 8a 93 fc a5 99 b7 3f 24 e0 3c
       0.015156776 -3.489044e-27 -1.8316314e-05 0.027361033
0001f0 ae d2 ad bd df 3f c4 3d 46 f8 ff 3d f3 9f eb bd
       -0.084874496 0.09582495 0.12498526 -0.11505117
000200 92 12 54 bd a7 5f 2e 00 5c 3f fa bb 0b ff 78 bc
       -0.051775523 4.258746e-39 -0.0076369476 -0.015197526
000210 b0 38 f2 bb e5 f6 be 3b 2b f6 63 bd 3f 94 39 3b
       -0.0073920116 0.005827772 -0.055654686 0.0028317121
000220 ca a3 8d bc 83 36 0a 3a ed 88 94 bc 5d 9a d1 3c
       -0.017290015 0.0005272405 -0.018131698 0.025586301
000230 c2 d4 22 bd f3 20 8d bc 5e 44 2f bd 77 a3 e0 bc
       -0.039753683 -0.017227625 -0.04278981 -0.027421696
000240 0f f7 ca ba 2f d3 79 3c 32 e2 76 bb 0e 0f 39 bd
       -0.0015485006 0.015248104 -0.0037671444 -0.045180373
000250 24 71 c8 bb 41 32 1f 3c e6 81 dd bd 73 05 1f 3b
       -0.006117003 0.009716571 -0.10815792 0.0024264723
000260 3c 69 31 94 4c a6 80 bc f0 3b 49 bc 06 0c 9d ba
       -8.95697e-27 -0.015704297 -0.012282357 -0.0011981733
000270 9c 71 91 ba 0e 92 0e 3d 07 6f 12 0f 4e 4c 04 3c
       -0.001109648 0.034807257 7.219739e-30 0.008074833
000280 fa c2 4c b7 ba d8 fc 3c b9 98 cf bc 2d aa 30 3d
       -1.2204744e-05 0.030865062 -0.025341379 0.043131042
000290 16 ec 4d bc 25 7e ac bc ec 1c d8 b1 e9 45 f5 ba
       -0.012568494 -0.021056244 -6.2897154e-09 -0.0018712851
0002a0 0e fa d1 a2 e0 da c6 bc be c0 1f bd d8 21 91 bc
       -5.691432e-18 -0.02427429 -0.039002173 -0.017716333
0002b0 29 aa 0e 85 aa 48 45 3c 70 f3 e8 06 13 99 c8 bc
       -6.7080614e-36 0.01204125 8.76264e-35 -0.024487054
0002c0 a2 bf 2d ba 65 5a 4e 3a 1f 86 78 bc 58 71 05 3d
       -0.0006627982 0.0007871746 -0.015168696 0.032578796
0002d0 32 c2 d1 bc 12 24 cc 3a 79 c2 e5 bc f0 2e 0b 33
       -0.025605295 0.0015574715 -0.028046833 3.240615e-08
0002e0 03 7e 0f 80 a0 cb c8 bc 63 82 63 bc 74 1a 45 bd
       -1.422737e-39 -0.024511158 -0.013886067 -0.04812093
0002f0 01 24 03 bc 3e fa cb 3b af 94 a2 bc 76 5a 66 bc
       -0.0080041895 0.0062248996 -0.019846288 -0.0140596535
000300 5c ce 6c 39 28 c1 39 38 7d 78 08 bd 95 d4 3e bd
       0.00022583589 4.4287328e-05 -0.03331803 -0.046589453
000310 75 b5 09 bd b7 a1 a8 ba e6 90 3c bc e8 b6 95 bc
       -0.033620317 -0.0012865578 -0.011509156 -0.018275693
000320 74 76 5b 3c ba 99 5c bd 64 02 06 00 06 af 97 aa
       0.013394941 -0.053857543 5.5187e-40 -2.6944435e-13
000330 ff e7 83 bc 64 cf d9 20 24 62 6e bc ce fa 0d 3c
       -0.016101835 3.689847e-19 -0.014549766 0.0086657535
000340 c8 ad 08 3d 3b 4d 4c bc 7d 9c 17 bd 8f 2d d8 bc
       0.033368856 -0.012469585 -0.037014473 -0.026388912
000350 af 48 5f bd 57 15 30 19 1a fb b8 bc df 74 1c 3c
       -0.054512676 9.103296e-24 -0.022580672 0.009549349
000360 c7 1a fe 3c be 31 e6 9f 9f a0 0a bd ec 09 b4 17
       0.031018628 -9.749108e-20 -0.033844586 1.1634732e-24
000370 aa 1f ca bc 10 03 1f 39 f9 0f f5 03 20 89 28 b7
       -0.024673302 0.00015164563 1.4403473e-36 -1.0045507e-05
000380 08 ef 7f 3d bc 66 4b 07 28 43 1b a3 3a 4e 09 00
       0.062483817 1.5302214e-34 -8.416788e-18 8.54582e-40
000390 69 be 00 b6 6c e4 9b 3c f8 09 a0 bc 32 1b 25 87
       -1.918432e-06 0.019029818 -0.019536003 -1.2421212e-34
0003a0 8b 90 0b 3c 0f d1 81 28 d8 a0 75 ac 5b dc bb 3b
       0.008518348 1.4412542e-14 -3.490588e-12 0.0057330555
0003b0 b6 5c e4 3a ba 2d 04 3c 2c f7 d6 bc 37 2d 48 bd
       0.001742265 0.008067543 -0.026240908 -0.048871245
0003c0 06 04 11 32 71 bc c1 21 68 c3 68 bc c6 78 e0 3c
       8.441026e-09 1.3128069e-18 -0.014206745 0.02740134
0003d0 2c 04 81 21 f9 8f 16 bc 7c d1 08 bd b7 5d 52 bc
       8.742484e-19 -0.009189599 -0.033402905 -0.012839726
0003e0 b4 69 3b bc a3 83 96 13 f7 33 c6 33 79 b3 25 bc
       -0.011438776 3.7995127e-27 9.229546e-08 -0.01011359
0003f0 09 3a 30 bc 1a fa 9d 3c a5 ba 37 bd 0c af 9e bc
       -0.010756024 0.019284297 -0.044855732 -0.019370578

conv1.nn.3.bias f4 [100]
000000 60 7b da bc 7e 47 2e bb 66 6d 10 bd 97 72 61 3d
       -0.026670158 -0.0026592906 -0.03526058 0.055040922
000010 64 98 fc bc 58 24 0f 3d d0 1b e5 3a e5 fe 54 aa
       -0.030834384 0.03494677 0.0017479602 -1.8917817e-13
000020 14 29 81 3c 2c 52 d4 3d ea 29 53 be 16 cf 48 3d
       0.015766658 0.103672355 -0.20621458 0.049025618
000030 04 63 74 3e 76 82 92 3d af b4 ce 3d 91 a9 e7 3e
       0.23865896 0.0715379 0.100930564 0.45246556
000040 d8 aa 8c 3e 3c 78 1c bb 26 b7 73 3b 49 0f 66 3e
       0.27474093 -0.0023875376 0.0037188022 0.22466768
000050 db 65 93 3c 3c fb 9a 3c d8 e1 e9 3c 31 39 ae bb
       0.017992904 0.018918626 0.028550074 -0.0053168763
000060 ac 23 a9 3d d1 01 a4 3d fb a2 b5 3d 9c c4 23 b8
       0.08258757 0.08008159 0.08868977 -3.9045335e-05
000070 df 11 24 3d 70 38 52 3e a1 96 e2 bd 32 06 af bc
       0.040056106 0.20529342 -0.110638864 -0.021365259
000080 40 f7 e5 3d da 7b 8c 3d 6a 7f 45 3e b1 61 93 3e
       0.112288 0.0685956 0.19286886 0.2878547
000090 3f ca 5c 3e 44 c3 26 b9 56 ed 2e bc 08 0b 88 3e
       0.21561526 -0.00015903736 -0.0106767025 0.26570916
0000a0 30 ad 45 be c3 10 6a bd 0b b0 60 3e ed f0 c3 3d
       -0.19304347 -0.05714489 0.21942155 0.09567437
0000b0 da eb 95 3e bc 61 91 3e ed 6f 60 bd 60 2c 13 ba
       0.29281503 0.28394878 -0.05479424 -0.00056142174
0000c0 ef 1e 2c 3d f4 05 c9 3e 3e 07 d6 3c 81 bc 1d bd
       0.042021688 0.39262354 0.0261265 -0.03850985
0000d0 ab 67 32 3e 6d ad 25 bd 99 02 77 bd 7a 30 a5 3d
       0.17422359 -0.040448595 -0.06030521 0.08065887
0000e0 ca b7 3f ba c0 e9 aa b2 f1 0c a9 bd 22 7e a1 3d
       -0.00073134585 -1.9896902e-08 -0.082544215 0.07885386
0000f0 bf 6c a2 bd 08 6b e6 3c 7b 0b 89 3d 33 e2 2d 3e
       -0.07930898 0.028127208 0.06691643 0.1698082
000100 40 c4 79 3e 1a 94 83 3e 60 b6 32 be a4 f2 bd b7
       0.2439127 0.2569893 -0.17452383 -2.2643544e-05
000110 38 20 71 ba c5 0f 7e 3e 91 89 c1 bd 94 29 d5 bc
       -0.00091982214 0.24810703 -0.09450067 -0.026020803
000120 fb 48 04 3e 24 06 f7 3d 35 fe 45 3e 70 78 71 3e
       0.12918465 0.12061718 0.19335254 0.235811
000130 7d 5e 98 bd 47 d6 fa b7 a9 13 8b bd de cb 6e 3e
       -0.07439897 -2.9902103e-05 -0.06790859 0.23319957
000140 fe e8 00 80 53 b9 43 80 3e f4 21 07 cf 50 03 80
       -8.3582e-41 -6.21946e-39 1.218407e-34 -3.04495e-40
000150 2f b4 f9 21 28 a1 32 25 98 c5 4e 31 a4 b2 75 81
       1.692059e-18 1.5493641e-16 3.0089264e-09 -4.5127561e-38
000160 9c a6 9f 07 92 0d eb 84 6e ef 5a be 9b c3 8b bc
       2.4021585e-34 -5.5260697e-36 -0.21380398 -0.017061045
000170 3b 64 21 3e 71 27 00 bd 58 31 72 3e 4b fe 7b 3e
       0.15760891 -0.031287614 0.23651636 0.24608724
000180 ae 71 61 3d c0 d7 9f b4 c1 6e 9d 3d dd e3 85 3e
       0.055040054 -2.9773037e-07 0.0768714 0.26150408

conv1.lin.weight f4 [10, 10]
000000 af da 17 bd 4d 5f d9 bd c5 9f 8f be 73 60 aa be
       -0.037073787 -0.1061388 -0.28051582 -0.3327671
000010 e8 bb ea be 65 fd 10 be 54 eb ce be c6 33 97 bd
       -0.45846486 -0.14159162 -0.40413916 -0.07382922
000020 5d 5b 0e 00 27 ee e9 be df 4c a8 3c 9a 5f bc 3d
       1.318472e-39 -0.45689508 0.020544467 0.09197922
000030 6a f2 be bc c2 cb 76 3c 0f eb 60 be 11 07 33 bd
       -0.023308951 0.015063228 -0.21964668 -0.04370791
000040 0b 0f 98 bd 86 45 fb bd 84 bb 01 80 ec 26 fd bc
       -0.07424744 -0.1226912 -1.59103e-40 -0.030902348
000050 a2 0c 96 3d df 7e a1 3d f2 51 87 3e a8 65 a7 3d
       0.07326628 0.07885527 0.26429707 0.08173686
000060 f8 c0 75 3e 49 3a 77 3e 4d ea 34 3c 0f b5 9d 3e
       0.23999393 0.24143328 0.01104219 0.308022
000070 51 be be 05 ab 0b 2c 3e 04 59 96 bd 4b c5 76 3d
       1.7937425e-35 0.16801326 -0.07341197 0.060246747
000080 f2 0c a9 3d 37 7f 5f 3e 92 95 cd 3d df 83 84 bd
       0.08254422 0.21825872 0.10038294 -0.06470465
000090 e2 1a 0d 3e 4f 1e 3c 3e 86 ee 47 00 34 07 0a 3e
       0.13779786 0.18370937 6.605886e-39 0.1347931
0000a0 bc 58 36 3c 56 89 12 3e 98 51 11 bc 81 de 38 3e
       0.011129554 0.14310202 -0.008869551 0.18053629
0000b0 a7 a9 43 3e 3e 51 32 3d 35 6c 73 3e d0 e2 07 3e
       0.19107686 0.04353451 0.23771746 0.13270116
0000c0 af 7d 60 0e b9 e7 a2 bd 85 47 0e 3c 74 66 e1 3e
       2.7670646e-30 -0.07954354 0.008684044 0.44023478
0000d0 5c da 12 3f c1 13 f2 3e e7 b0 36 3f bf 16 85 3d
       0.5736444 0.47280696 0.7136368 0.06498479
0000e0 a5 54 30 3e 4d a1 b7 3e 35 5b de 93 40 82 ff 3e
       0.1721979 0.3586525 -5.6130616e-27 0.4990406
0000f0 15 75 52 be d4 12 75 bc fa 99 87 3e 8f 2a dc 3e
       -0.20552476 -0.014958102 0.26484662 0.4300122
000100 08 2c d6 3e 66 42 88 3d 79 d9 94 3e 43 c2 b5 3e
       0.41830468 0.066532895 0.29072168 0.35499772
000110 ff 9c f8 21 2b a0 9f 3d ac 6e ea b2 8d 27 a9 ba
       1.684669e-18 0.077942215 -2.7291513e-08 -0.0012905464
000120 83 46 b1 b3 18 d1 d9 b6 3e 2f 08 bb d9 65 d5 b5
       -8.255031e-08 -6.4914457e-06 -0.0020780112 -1.5899378e-06
000130 20 3f b6 ba 95 4d 45 ba 10 8c 60 00 86 37 8c b4
       -0.0013904311 -0.0007526514 8.866453e-39 -2.611743e-07
000140 8a 8e 02 3d 0a 65 43 3d a3 ad ee bc d1 bd 68 3d
       0.031874217 0.04770378 -0.02913553 0.056821648
000150 9e a5 36 bd ab 0b 86 bd c6 8d 5d 3c cf 99 bf bd
       -0.04459154 -0.06545194 0.013522571 -0.093555085
000160 a7 48 1c 80 bc c7 3c bb 05 66 f0 3c a2 61 ad 3e
       -2.597457e-39 -0.0028805574 0.029345522 0.3386355
000170 b1 59 46 3e cf d0 34 3e 93 e3 0d 3f 6e f6 13 3e
       0.19370152 0.17657779 0.55425376 0.14449474
000180 72 30 88 3e 64 8f a4 3e 02 89 a9 0c c7 ce 74 3e
       0.2659946 0.32140648 2.6121031e-31 0.23907004
