GNN/13j3p_withBtagLabel_NodeFeature/1_NNConv_13j3p_EtaPhiPtEBtaglabel.pth (torch, 71977 bytes, 12 tensors)

weight f4 [64, 11]
0	0xbeaafef2	-0.33397633
1	0xbd9b3985	-0.0757933
2	0xbec14c59	-0.3775356
3	0xbcfc8e28	-0.030829504
4	0xbe7f87b6	-0.24954113
5	0x3da36cf3	0.07979765
6	0xbec285b0	-0.3799262
7	0xbd9769f5	-0.073932566
8	0x3d8a998b	0.06767567
9	0x3aa6d85b	0.0012729274
10	0x3d68d017	0.056839075
11	0x3d9b7a1f	0.07591652
12	0x3e182280	0.1485691
13	0x3e81f27a	0.25380307
14	0xbe25e19a	-0.16199341
15	0x3e3f3112	0.18671063
16	0xbd8dd8c4	-0.069261104
17	0x3d983ddc	0.07433674
18	0xbe0cbd9f	-0.1374421
19	0x3e09f550	0.13472486
20	0x3e149f4d	0.14513893
21	0xbdec7e1e	-0.115474924
22	0xbe21255c	-0.15736908
23	0x3d42e5a6	0.04758229
24	0xbd548de7	-0.05189314
25	0x3e3f2483	0.18666272
26	0xbe74e6e9	-0.2391621
27	0xbd8d3ba2	-0.0689614
28	0xbbe6da7e	-0.0070450893
29	0xbe85a537	-0.2610261
30	0x3cec29ff	0.028828619
31	0xbe0842c1	-0.13306715
32	0x3d916de0	0.07101035
33	0xbdb2336f	-0.087012164
34	0x3b086dbb	0.0020817358
35	0xbe6ceeb0	-0.23137927
36	0x3db93e2c	0.090450615
37	0xbe65590c	-0.2239725
38	0x3df431c0	0.119235516
39	0xbe87387c	-0.26410282
40	0xbde60c4f	-0.112328164
41	0xbeae5bcf	-0.3405442
42	0xbe45f8e3	-0.19333224
43	0x3cbc1e4f	0.022963671
44	0xbde0f9a6	-0.10985117
45	0x3dd8effa	0.10592647
46	0xbe144107	-0.14477931
47	0xbed6554b	-0.41861948
48	0x3d33320e	0.043748908
49	0xbdcc34a3	-0.09970977
50	0x3e2deaa7	0.16984044
51	0x3e60c4f8	0.21950138
52	0x3dbe627b	0.092961274
53	0xbd8db298	-0.0691883
54	0x3dab1ece	0.08355485
55	0xbcef0092	-0.029175077
56	0xad4f42a9	-1.1781389e-11
57	0xbabb93a3	-0.0014310967
58	0x3c06e4ad	0.0082332315
59	0xbcd15282	-0.025552038
60	0xbc547ac4	-0.012968723
61	0x3dbe436e	0.09290205
62	0x3901619a	0.00012338758
63	0xbbc8af42	-0.006124408
64	0x003f80cc	5.83184e-39
65	0xbd07ecd4	-0.03318484
66	0x3d1c62aa	0.03818003
67	0xbd2c4993	-0.042062353
68	0xbd2be51a	-0.041966535
69	0xbbb84dfb	-0.0056245304
70	0xbc72a3f4	-0.014809597
71	0xbcc3f68e	-0.023921277
72	0xbd90bd74	-0.07067385
73	0x3e3e0d9b	0.18559878
74	0x3dda7345	0.10666517
75	0xb91273d2	-0.00013966791
76	0xbe0bb48a	-0.13643089
77	0x9d485232	-2.6512274e-21
78	0x3dbadb0b	0.091238104
79	0xbc9ef7c7	-0.019405259
80	0xb84c5ad5	-4.8721984e-05
81	0x000b84cd	1.05783e-39
82	0xbcac9280	-0.02106595
83	0xbc9c3fec	-0.01907345
84	0xbdd04d48	-0.1017099
85	0x3e5fb9a8	0.21848166
86	0x31cb9fc0	5.926239e-09
87	0xbe4eef15	-0.2020839
88	0xbe3be97a	-0.18350783
89	0xbd196b11	-0.037455622
90	0xbe830f82	-0.2559777
91	0x3e0bb29e	0.13642356
92	0xbeade6eb	-0.3396524
93	0xbe1a7b43	-0.15086083
94	0x3d147b31	0.036250297
95	0xbed1aae7	-0.409507
96	0xbe5649e2	-0.20926622
97	0x3e12cf57	0.14336906
98	0x3da6196f	0.0811032
99	0xbd1391c4	-0.036027685
100	0x3c935c95	0.017988482
101	0x3d075aa9	0.033045445
102	0xbd0deabf	-0.0346477
103	0xbddaf1bd	-0.10690639
104	0x3e287be4	0.1645351
105	0x3e488f55	0.19585927
106	0x3d6f7f20	0.058470845
107	0xbdd71dd3	-0.105037354
108	0xbc852390	-0.01625231
109	0xbea3a1d1	-0.31959394
110	0xbd48651f	-0.04892456
111	0xbda2c0e1	-0.07946945
112	0xbdc70893	-0.09718432
113	0xbda80dd6	-0.08205764
114	0x3ea6e346	0.3259527
115	0x3e445152	0.19171646
116	0xbcd10b4f	-0.025518088
117	0xbda30bbd	-0.07961223
118	0x3dd7eb7c	0.10542962
119	0x3e18541d	0.14875837
120	0xbe9b1d3f	-0.3029575
121	0x3c1ded21	0.0096390555
122	0x3e87d233	0.26527557
123	0xbe421139	-0.18951882
124	0xbd671a92	-0.056421824
125	0x3bb3837d	0.005478321
126	0xbe840303	-0.25783548
127	0xbe800279	-0.25001886
128	0x3e4ff23f	0.20307253
129	0xbde821c5	-0.11334566
130	0x3e165f27	0.14684735
131	0xbd10de41	-0.035368208
132	0x3db89f6c	0.09014782
133	0xbccb1394	-0.024789609
134	0x3da33c3f	0.079704754
135	0x3e2ebae9	0.17063488
136	0x3e14ed05	0.14543541
137	0xbd66c511	-0.05634028
138	0x3cd1e87a	0.025623549
139	0x3e34d60c	0.17659777
140	0xbe00bb7b	-0.12571518
141	0x3e7725e8	0.24135554
142	0xbded053c	-0.11573264
143	0xbea7832a	-0.32717258
144	0xbb466cc8	-0.003027724
145	0xbef07bf7	-0.46969578
146	0xbc714284	-0.014725331
147	0xbc7956e7	-0.015218473
148	0xbc540f5a	-0.012943113
149	0xbebb8367	-0.3662369
150	0xbe8210a7	-0.2540333
151	0x3d5d7bb2	0.054073043
152	0x3db7e8c6	0.08979945
153	0x3da4387e	0.080185875
154	0xbe59463b	-0.21218197
155	0x3d96c161	0.07361103
156	0x3dbc5a90	0.09196961
157	0x3cb99cb0	0.022657722
158	0x3e92b4bd	0.28653517
159	0x3de20c6f	0.11037528
160	0x3e2a75ef	0.1664655
161	0x3e03c379	0.12867536
162	0x3df7fbdf	0.121085875
163	0x3d71cad4	0.059031323
164	0xbe909354	-0.28237402
165	0xbec89b4c	-0.39180982
166	0xbe78f1d2	-0.24310997
167	0xbeb692ce	-0.35658878
168	0x3dde399f	0.10850834
169	0xbdbfcb32	-0.09364928
170	0xbe28ad5f	-0.16472386
171	0xbebd3e1e	-0.36961454
172	0x3e3bf5df	0.18355511
173	0x3e0d2245	0.13782604
174	0x3d3a582f	0.045494255
175	0x3e1c6980	0.1527462
176	0xbd3f19fd	-0.046655644
177	0xbe3d6f5d	-0.18499513
178	0xbf02eeec	-0.51145816
179	0x3cb39997	0.021923823
180	0xbe8b40e4	-0.27197945
181	0x3e2d4105	0.16919334
182	0xbd707c31	-0.05871219
183	0x3d845814	0.06462112
184	0xbe6e6c33	-0.23283462
185	0xbe1e1ab5	-0.15439875
186	0x3baf515a	0.005350274
187	0xbd922974	-0.07136813
188	0x3e9af1a0	0.3026247
189	0xbe56ff87	-0.20995913
190	0x3d8c132e	0.06839596
191	0xbe82cccc	-0.25546873
192	0x3d60d4d8	0.054890484
193	0xbb0bb942	-0.002132014
194	0x3df47916	0.11937158
195	0x3e593df1	0.21215035
196	0xbdd14116	-0.10217492
197	0xbca07491	-0.019586833
198	0xbe13685d	-0.1439528
199	0x3e5903e1	0.21192886
200	0xbe0bd550	-0.13655591
201	0x3ddf29f5	0.108966745
202	0xbe4868f8	-0.19571292
203	0x3dd1e768	0.10249215
204	0x3e660b47	0.2246524
205	0x3e366ebd	0.17815681
206	0x3e081c03	0.13291936
207	0x3dcd9be5	0.100395
208	0xbe6acec0	-0.22930431
209	0x3bfac9c4	0.007653447
210	0xbe9fc80a	-0.31207305
211	0xbecd7f34	-0.4013611
212	0x3dc00344	0.09375623
213	0x3e66bdba	0.22533312
214	0xbe3aa56b	-0.18227164
215	0xbe873cb5	-0.26413503
216	0xbf221a34	-0.6332123
217	0xbeaa9bf0	-0.33322096
218	0xbdce558b	-0.1007491
219	0x3db61e1f	0.08892464
220	0xbda9de15	-0.08294312
221	0xbe483b8c	-0.19553965
222	0xbeb145b0	-0.3462348
223	0x3e09ebf2	0.13468912
224	0xbea7be73	-0.3276249
225	0x3e0856ff	0.13314436
226	0xbd95b8c7	-0.07310634
227	0x3e27bef6	0.1638144
228	0xbea1ce20	-0.31602573
229	0xbe7cb504	-0.24678427
230	0x3bf510de	0.0074788174
231	0xbdb1f700	-0.0868969
232	0x3c793a05	0.015211587
233	0xbdacf5e4	-0.084453374
234	0x3e379a33	0.17929916
235	0xbeb55179	-0.3541372
236	0x3e2800d1	0.16406561
237	0xbd6bdd3f	-0.057584044
238	0x3e294cbd	0.1653318
239	0xbda8623c	-0.08221862
240	0xbe2289ca	-0.15872875
241	0xbdc5d3d4	-0.09659544
242	0xbe11371a	-0.14181176
243	0xbec79562	-0.38981158
244	0xbef10991	-0.4707761
245	0x3c2f378b	0.010694395
246	0xbdb759f5	-0.08952705
247	0x3ca5f914	0.020260371
248	0xbe308215	-0.17237122
249	0xbef8e28e	-0.48610348
250	0xbd1b1a8c	-0.037867114
251	0xbd765f51	-0.060149495
252	0x3d9fcd1b	0.07802793
253	0x3e619309	0.22028746
254	0xbdb7de2b	-0.08977922
255	0xbc410178	-0.011780135

bias f4 [64]
0	0xbcb6164d	-0.02222743
1	0x3c05e111	0.008171336
2	0x3e542c54	0.20720035
3	0x3e9b9fdb	0.30395398
4	0x3de59d5c	0.112116545
5	0x2ae36607	4.0394096e-13
6	0xa09aa5a3	-2.6198224e-19
7	0x92dd31fc	-1.3959383e-27
8	0x3f002524	0.5005667
9	0xb74b7fff	-1.2129544e-05
10	0x3db20b82	0.08693601
11	0xbe1dc098	-0.154055
12	0xbd1f4abc	-0.03888963
13	0x3ea7dec0	0.32787132
14	0x3dae524f	0.08511793
15	0xbe2d479c	-0.16921848
16	0x3e069309	0.13142027
17	0x3ec0511c	0.37561882
18	0x3d67a7ec	0.056556627
19	0x3f022c8a	0.5084921
20	0x3e6cb234	0.23114854
21	0x3f12c313	0.5732891
22	0x3d68f7dc	0.056877002
23	0xbda3f194	-0.08005062
24	0xbdd249d6	-0.10267989
25	0x3f2839bf	0.65713114
26	0xbc47b32f	-0.012188717
27	0x3d140dc1	0.03614593
28	0xbccd6b22	-0.025075499
29	0x3ce3e168	0.027817443
30	0xbd533f71	-0.051574174
31	0xbd419e9b	-0.0472704
32	0x3f0d1fd7	0.5512671
33	0x8031adc0	-4.562269e-39
34	0xbd83f535	-0.06443254
35	0xbd915e32	-0.070980445
36	0x3b826979	0.0039798585
37	0xbc7a44c2	-0.015275182
38	0x3d66bc80	0.05633211
39	0x3f0c64e6	0.5484146
40	0x8044e0a4	-6.3254e-39
41	0x3f2907eb	0.66027707
42	0x000f9ec4	1.434487e-39
43	0x3e1ef7d3	0.15524225
44	0xb0da4424	-1.5880954e-09
45	0x3ee9fa6a	0.45698863
46	0x3eb5d017	0.35510322
47	0xbe4aa10e	-0.19788
48	0x3f87776f	1.0583323
49	0x0016a6d2	2.080225e-39
50	0x3f1db135	0.6159852
51	0xbe146441	-0.14491369
52	0xbc348880	-0.011018872
53	0x3def17ff	0.11674499
54	0x3a25521a	0.00063064846
55	0xb7bcd03b	-2.2508311e-05
56	0x3cff8e23	0.031195706
57	0x3f4feda4	0.81221986
58	0xbcfc7f24	-0.030822344
59	0x3f4fb6dd	0.811384
60	0x3f181802	0.59411633
61	0xbb2924e4	-0.0025809342
62	0x3f4510a4	0.76978517
63	0xba92dcc0	-0.0011204705

weight f4 [1, 64]
0	0xbc75f5d2	-0.015012221
1	0x3e2c9ff6	0.16857895
2	0xbca0bfb1	-0.019622656
3	0xbc8eb53b	-0.017420402
4	0x3c703cef	0.014662965
5	0xbca66925	-0.020313809
6	0x3cf31d57	0.029677076
7	0x3d2d6bb6	0.04233905
8	0xbd17fc5e	-0.03710591
9	0xbd3c1e93	-0.045927595
10	0x3cd7a553	0.02632395
11	0x3d5730e0	0.052536845
12	0x3d7dfcd9	0.062008712
13	0xbce2d262	-0.027688209
14	0x3cc59341	0.024118068
15	0xbbea1013	-0.0071430295
16	0xbc9cdb80	-0.019147635
17	0xbd2b8e1b	-0.04188357
18	0x3cd635d1	0.026148709
19	0xbd8d9177	-0.06912511
20	0xbc8a6505	-0.016893873
21	0xbd3ee614	-0.04660614
22	0xbc8f176d	-0.017467225
23	0xbdade29e	-0.084904894
24	0xbc86b65d	-0.01644438
25	0x3d0045d2	0.031316586
26	0xbdcd66ad	-0.100293495
27	0x3b1ee62d	0.0024246082
28	0x3d659b31	0.056056205
29	0xbc5a6e74	-0.013331998
30	0x3c9bdb0a	0.019025344
31	0x3c12ca6c	0.008959394
32	0xbe0fb03f	-0.14032076
33	0x3bc25a2e	0.0059311604
34	0xbbc49e5e	-0.006000324
35	0xbc9eb8c8	-0.01937522
36	0x3df35f58	0.1188342
37	0x3d816c89	0.063195296
38	0xbc753bc6	-0.014967864
39	0x3cefd658	0.029277012
40	0xbca060fa	-0.019577492
41	0xbe00225d	-0.12513109
42	0xbc8636d8	-0.016383573
43	0xbd37ec92	-0.044903345
44	0x3bdd6622	0.00675656
45	0x3cd2d1c7	0.025734795
46	0x3d32c6d3	0.043646645
47	0x3c5e5c00	0.013571739
48	0x3e0b6a03	0.13614659
49	0xbb121595	-0.0022290696
50	0x3d82a9e2	0.06380059
51	0xbe16e190	-0.14734483
52	0xbd5acf08	-0.053420097
53	0xbc878f04	-0.016547687
54	0x3b4a3285	0.0030852866
55	0xbc5879bd	-0.013212618
56	0x3e26bc1d	0.16282697
57	0x3d410c58	0.047130913
58	0x3bba7424	0.0056901146
59	0x3dae3c07	0.08507543
60	0x3d6719d8	0.05642113
61	0xbd0c7a1c	-0.03429614
62	0xbd7f87d6	-0.062385403
63	0xbcd39112	-0.02582601

weight f4 [10, 5]
0	0xa9f1e026	-1.07414335e-13
1	0xb70777fb	-8.074562e-06
2	0xbcbb810f	-0.022888688
3	0xbcf51fd8	-0.02992241
4	0xb23aa893	-1.0864954e-08
5	0x3e05f045	0.13079937
6	0xbeabbe68	-0.33543706
7	0x3d9fdbf2	0.07805623
8	0xbb87e0de	-0.0041466793
9	0x3fd2f6cc	1.6481566
10	0xbc490395	-0.01226892
11	0x3c6eb19f	0.014568715
12	0xbbd99b81	-0.006640852
13	0xbbce1c89	-0.0062900227
14	0xbcdd3663	-0.027003473
15	0xbf42107e	-0.75806415
16	0xbe8185ac	-0.25297296
17	0xbe6a0557	-0.228536
18	0x3e908811	0.2822881
19	0x3ec18aa3	0.37801084
20	0x3ed646e3	0.41850957
21	0xbed13e45	-0.4086782
22	0x3dd15891	0.10221971
23	0x3ddf9a15	0.10918061
24	0x3e2b9d81	0.16759302
25	0xbf2e7351	-0.6814471
26	0x3cdf600f	0.027267484
27	0x3ca6af16	0.02034716
28	0x3e92866f	0.2861819
29	0xbf97ccb3	-1.1859344
30	0x3e85f6b5	0.26164785
31	0x3e5af2fe	0.21381757
32	0x3e96cd14	0.29453337
33	0xbd57dc7c	-0.052700505
34	0x40452623	3.0804527
35	0xbeadcde7	-0.33946154
36	0xbeb8a86d	-0.36066
37	0x3eb884e8	0.360389
38	0xbd884f5d	-0.06655762
39	0x4003aacf	2.0573003
40	0x3d4ab9bc	0.049493536
41	0xbebcc277	-0.36867115
42	0x3eb49c86	0.35275668
43	0xbdd2880a	-0.10279854
44	0xbf8f3c80	-1.1190338
45	0x3e8597e5	0.2609245
46	0x3f153d7f	0.5829696
47	0xbeb2b204	-0.3490144
48	0x3e9b42e8	0.30324483
49	0x400ea6ac	2.2289228

bias f4 [10]
0	0xb6cae548	-6.046761e-06
1	0xbf424633	-0.75888366
2	0xbc6e0156	-0.014526686
3	0xbe6ce45a	-0.23133984
4	0xbfda1536	-1.7037723
5	0xbdd888b6	-0.105729505
6	0xbf6e180c	-0.9300544
7	0xbf1dbd1b	-0.6161668
8	0x3f8624fa	1.0480034
9	0x3e8f0779	0.2793539

weight f4 [128, 1]
0	0xb9488087	-0.00019121366
1	0xbe7352bf	-0.23762034
2	0xbf54436b	-0.8291537
3	0x3de24221	0.11047769
4	0x3ecc5e76	0.39915818
5	0x3e53faf1	0.20701195
6	0xbe56033c	-0.20899671
7	0x3f19665e	0.59921825
8	0xa320474f	-8.6887176e-18
9	0x3e5b263b	0.21401303
10	0x3f0c6689	0.54843956
11	0xbf27e024	-0.65576386
12	0xa141d306	-6.567023e-19
13	0x3e895d25	0.26828876
14	0x3f13c86b	0.5772769
15	0x3e3d29c7	0.18472968
16	0x3f394ea1	0.72385603
17	0x985c4f10	-2.847425e-24
18	0x9cbceec2	-1.2502514e-21
19	0xbd5eadba	-0.054364897
20	0x8fd83a8a	-2.1321793e-29
21	0x3f04071e	0.5157336
22	0xbed6f16c	-0.41981065
23	0x3ecea814	0.40362608
24	0x3f3e42d8	0.74320745
25	0x3e9a89cb	0.30183253
26	0xa22a1be2	-2.3054057e-18
27	0xbf246e43	-0.64230746
28	0x3f49b5ae	0.78792846
29	0x3e48188f	0.19540618
30	0xa11abbd0	-5.2425797e-19
31	0xbea86787	-0.32891485
32	0x3eeb28de	0.45929617
33	0xbef566ad	-0.47929898
34	0xbe80cfcd	-0.2515854
35	0x9f871435	-5.7208154e-20
36	0x3e80f081	0.2518349
37	0x3e3d1ca9	0.18467964
38	0x9238d764	-5.832565e-28
39	0xbf3e9578	-0.7444682
40	0x3ecd753a	0.401285
41	0x3f1f312d	0.6218441
42	0x3e801949	0.2501929
43	0x3ec21660	0.37907696
44	0xbc0ca342	-0.008583846
45	0x00342c3f	4.791318e-39
46	0x9cf9946c	-1.6515804e-21
47	0xbe9cbdb6	-0.30613488
48	0xbf3a6d14	-0.7282269
49	0x3f08860d	0.53329545
50	0xbf35541e	-0.7083148
51	0x97bbe85c	-1.2143248e-24
52	0x3f046da0	0.51729774
53	0xbe0510b7	-0.12994657
54	0x3e92b1be	0.28651232
55	0x3e847564	0.25870812
56	0x3f0a98ed	0.54139596
57	0x3e7ae294	0.24500495
58	0xbea7f580	-0.3280449
59	0xbcb28287	-0.021790756
60	0xa1d65f1c	-1.4526379e-18
61	0xbe8bc669	-0.27299812
62	0xbf522215	-0.82083255
63	0xa846a253	-1.1026406e-14
64	0x3f259bbd	0.6469076
65	0xbcc7b3e9	-0.02437778
66	0x3e7071c5	0.234809
67	0x3e75a17a	0.2398738
68	0x3dfdc9f1	0.12392033
69	0x3f32fac5	0.69913894
70	0xbf2c016f	-0.6718969
71	0xbc00111a	-0.007816577
72	0xbf102b6d	-0.5631626
73	0xbc5db2c7	-0.013531393
74	0x3f06d7bd	0.5267294
75	0x3f32413f	0.6963081
76	0xbeb74dec	-0.35801637
77	0x3ed80e08	0.42198205
78	0x3ea7e7c2	0.32794005
79	0x3ed22bf9	0.41049173
80	0x3ed90cbd	0.4239253
81	0xbdd1d72e	-0.102461204
82	0xbcfacc61	-0.030615034
83	0x3e63a4b7	0.22230802
84	0x3c348760	0.011018604
85	0x3e001fdc	0.12512153
86	0xab1787d7	-5.383449e-13
87	0xbcac89d5	-0.021061817
88	0x3f189fce	0.5961884
89	0x3e505317	0.20344196
90	0xbc081eb1	-0.008308099
91	0xbd8c03e3	-0.06836679
92	0x3f381276	0.7190317
93	0xa376ffb0	-1.3389831e-17
94	0xbea5f513	-0.3241354
95	0x3e3f7d3d	0.18700118
96	0xa41df5c4	-3.425212e-17
97	0xbcd45642	-0.025920037
98	0xbd02e688	-0.031958133
99	0x3db85cc7	0.09002071
100	0xbf0ddb70	-0.5541296
101	0x9616f512	-1.2194234e-25
102	0x3ec1ba53	0.37837467
103	0x3ec7d752	0.39031464
104	0x802e9287	-4.276997e-39
105	0xbdc9d9da	-0.09856005
106	0xbf32e26a	-0.6987673
107	0xbca7201d	-0.020401055
108	0xbccdf3f6	-0.025140744
109	0xb9fca883	-0.00048190737
110	0xbf35aec9	-0.70969826
111	0xbf26d0a4	-0.6516211
112	0x3f13546e	0.57550704
113	0xbe542771	-0.2071817
114	0x3f25aa0c	0.64712596
115	0xbe701efb	-0.23449318
116	0xbe98e34f	-0.29860923
117	0xbf396368	-0.72417307
118	0xbeca60b1	-0.39526895
119	0x3ecb2d26	0.39682883
120	0x3f378c5f	0.71698564
121	0x3eb0aa4a	0.3450492
122	0xbc2268f1	-0.009912715
123	0xbe92b033	-0.28650054
124	0x3e50e59c	0.20400089
125	0x3f0ba44b	0.54547566
126	0x3d9c6a06	0.0763741
127	0x3ee2844c	0.4424156

bias f4 [128]
0	0xb04e65fe	-7.5087303e-10
1	0x3f2b40d4	0.66895795
2	0x3f337bc0	0.701107
3	0xbe28b737	-0.16476141
4	0xbf5d3842	-0.8641397
5	0xbecf3963	-0.4047347
6	0x3f119f9e	0.5688418
7	0x3f048374	0.5176308
8	0x802db44f	-4.19728e-39
9	0x3ee2ac52	0.44272095
10	0xbec68159	-0.3877056
11	0x3f1251c0	0.5715599
12	0x801c143f	-2.578657e-39
13	0xbafd562d	-0.001932805
14	0xbeef50da	-0.46741372
15	0x3f0c782a	0.54870856
16	0xbfa7d3fd	-1.3111569
17	0x002eb0db	4.287877e-39
18	0x9ba344db	-2.7010585e-22
19	0x3ed39f00	0.41332245
20	0x8e54ebd9	-2.6244574e-30
21	0x3e8bd2a8	0.27309155
22	0x3f16b885	0.58875304
23	0x3f1795f4	0.59213185
24	0xbebee4f4	-0.37284052
25	0x3e1bb3ed	0.15205355
26	0x9a76001f	-5.0871705e-23
27	0x3f0cbf56	0.54979455
28	0x3e8ebd03	0.2787858
29	0x3dc87ec3	0.09789803
30	0x804a6c47	-6.83467e-39
31	0x3f683c44	0.9071696
32	0xbf768e3d	-0.9631079
33	0x3ed0b66a	0.4076417
34	0x3f58018a	0.8437735
35	0xa312c537	-7.956438e-18
36	0xbe19647a	-0.14979735
37	0x3eb75583	0.35807428
38	0x92e73cfa	-1.4593181e-27
39	0x3f22b5f4	0.6355889
40	0xbe9cd605	-0.30632034
41	0x3d80af20	0.062834024
42	0x3f26e8d0	0.65198994
43	0xbea98a45	-0.33113304
44	0xbaed660f	-0.0018112081
45	0x92ce5879	-1.3022238e-27
46	0x0025f165	3.48451e-39
47	0x3f5bbfd4	0.8583958
48	0x3f1e0c8f	0.6173791
49	0xbef1e826	-0.47247428
50	0x3f6916f3	0.9105064
51	0x802320cb	-3.226006e-39
52	0x3bcbafcf	0.0062160264
53	0x3f195ff4	0.5991204
54	0xbf20fd55	-0.62886554
55	0xbf0a7881	-0.54090124
56	0xbe062d2a	-0.13103166
57	0xbee67cca	-0.45017081
58	0x3ed7c42b	0.42141852
59	0xbc0583f0	-0.008149132
60	0x0012d12f	1.72808e-39
61	0x3f523726	0.821154
62	0x3f800812	1.0002463
63	0x2850122c	1.155026e-14
64	0x3ed029a0	0.40656757
65	0xbc86e4f3	-0.016466593
66	0x3f334418	0.7002578
67	0x3f39e667	0.7261719
68	0x3f217388	0.6306691
69	0xbe9baf79	-0.30407313
70	0x3f51482c	0.8175075
71	0xba09ea3a	-0.0005261038
72	0x3f2e1ad6	0.680097
73	0xbc33ffc5	-0.010986273
74	0xbf863e0c	-1.0487685
75	0xbfa77a93	-1.3084282
76	0x3f67baba	0.905193
77	0xbf671ce2	-0.90278447
78	0xbf3049f0	-0.6886282
79	0xbf5b180c	-0.8558357
80	0xbf6790b1	-0.90455157
81	0x3ea7e132	0.32788998
82	0x3f468ba4	0.77556825
83	0xbed1ff3d	-0.41015044
84	0xbb06e366	-0.0020582317
85	0xbe4a3351	-0.19746138
86	0xab90a830	-1.0278497e-12
87	0xbc3cdf22	-0.011527808
88	0xbf01e6e1	-0.5074292
89	0xbed10bc4	-0.4082929
90	0xba0b479a	-0.00053130987
91	0x3e6a7178	0.22894847
92	0xbf4741b0	-0.77834606
93	0x2356f307	1.1652426e-17
94	0x3f6f16b7	0.93394035
95	0x3f29b7b1	0.66295916
96	0x98da4e5a	-5.6430794e-24
97	0xbcaa60df	-0.020798145
98	0xbc8e614b	-0.017380377
99	0x3eb89f24	0.36058915
100	0x3f386f63	0.7204496
101	0x158011d0	5.172689e-26
102	0xbf0f37f1	-0.55944735
103	0xbe817dd7	-0.2529132
104	0x8ed326e4	-5.2052966e-30
105	0x3e8fc63e	0.28080934
106	0x3f61db6e	0.8822545
107	0xbc324e50	-0.010882929
108	0x3f0c4d28	0.5480523
109	0xb111b3c4	-2.1202462e-09
110	0x3f606060	0.87647057
111	0x3f0b86c5	0.54502517
112	0x3ed62dc0	0.4183178
113	0x3e374b37	0.17899786
114	0x3ef13670	0.47111845
115	0x3e93e41f	0.2888498
116	0x3f509dc2	0.8149072
117	0x3f60fb98	0.878839
118	0x3ef3f734	0.4764954
119	0x3f12ada5	0.5729621
120	0xbf1513cf	-0.5823335
121	0xbf3aadea	-0.7292162
122	0x3f47fe41	0.78122336
123	0x3f461959	0.7738243
124	0x3f2eee77	0.6833262
125	0xbe543469	-0.20723118
126	0x3f12488a	0.57141936
127	0xbf59eb43	-0.85124606

weight f4 [100, 128]
0	0x802f75f5	-4.358583e-39
1	0xa7b65a3c	-5.061298e-15
2	0x19bb8984	1.9390889e-23
3	0x26f28083	1.6826956e-15
4	0x281f5e6b	8.846747e-15
5	0xa820f314	-8.934493e-15
6	0xa83a6b56	-1.0348349e-14
7	0x33a02773	7.4577564e-08
8	0x803ba6e2	-5.47816e-39
9	0x269b99f5	1.0797016e-15
10	0xa8da98e3	-2.4269166e-14
11	0x1d1b4425	2.054931e-21
12	0x8041f006	-6.055411e-39
13	0xa7a30e30	-4.525697e-15
14	0xa7ac56b2	-4.7833585e-15
15	0xa8def3d9	-2.4752703e-14
16	0x28110248	8.049612e-15
17	0x80198c47	-2.34621e-39
18	0x802824bc	-3.686598e-39
19	0xa7223ad7	-2.2513913e-15
20	0x00046df5	4.06787e-40
21	0xb41a2c8c	-1.4358574e-07
22	0xa68640d2	-9.315687e-16
23	0xaba89a4e	-1.1979946e-12
24	0xa8455cfc	-1.09558596e-14
25	0x26fc2175	1.7495081e-15
26	0x801f191d	-2.85591e-39
27	0x9c84ace5	-8.779719e-22
28	0x29b43fe3	8.0046884e-14
29	0xa75b409e	-3.0427384e-15
30	0x003d9c89	5.65812e-39
31	0x27f0328e	6.6668193e-15
32	0xa6195e10	-5.3210017e-16
33	0x1c2d7f4b	5.740542e-22
34	0xa775acd4	-3.409427e-15
35	0x800ce128	-1.182797e-39
36	0xa5e7ce11	-4.0211748e-16
37	0x29c628fc	8.800076e-14
38	0x8021efa0	-3.116533e-39
39	0x973aed09	-6.039902e-25
40	0x26dd40a6	1.5352479e-15
41	0x315d9670	3.2245246e-09
42	0x2a855312	2.3683188e-13
43	0xa75c8de9	-3.0608063e-15
44	0x80232ae4	-3.229629e-39
45	0x800d01c2	-1.194492e-39
46	0x80037c20	-3.20034e-40
47	0xa6c1efc6	-1.3457056e-15
48	0x1cca6704	1.3393868e-21
49	0xa88cc2fc	-1.5627683e-14
50	0xa6a8dad4	-1.1716655e-15
51	0x002b3893	3.969221e-39
52	0x2769abc9	3.242837e-15
53	0x27e8ea6e	6.4647105e-15
54	0xa83f6aff	-1.0625831e-14
55	0xa7c8de0a	-5.5751886e-15
56	0xaf932e44	-2.6772018e-10
57	0x284903fb	1.11586045e-14
58	0x1ffc3cc8	1.06826705e-19
59	0x000dc5ee	1.264865e-39
60	0x000e82d6	1.332632e-39
61	0x26a3a486	1.1354991e-15
62	0xa5f2d4db	-4.2124545e-16
63	0x00076fc1	6.82938e-40
64	0x37044221	7.88321e-06
65	0x000e20f4	1.297518e-39
66	0xa8a728c6	-1.8558407e-14
67	0xa903eeee	-2.9295082e-14
68	0xa8707cc2	-1.3349729e-14
69	0xadc4cb1c	-2.2372819e-11
70	0x2661211b	7.8107423e-16
71	0x80399ac5	-5.290144e-39
72	0xa432ada6	-3.8744683e-17
73	0x012b1862	3.1425233e-38
74	0xa3d202c0	-2.276941e-17
75	0xa8506a44	-1.1569362e-14
76	0x26b89215	1.280716e-15
77	0xa7b04848	-4.892818e-15
78	0x27f1080a	6.6899653e-15
79	0xa77fca06	-3.5497876e-15
80	0xa7f14bcc	-6.6973116e-15
81	0xa6ac6f87	-1.1965127e-15
82	0x284f708a	1.1515211e-14
83	0xa816f098	-8.378843e-15
84	0x8026202a	-3.501287e-39
85	0xa7064f83	-1.863934e-15
86	0x803f3a82	-5.806625e-39
87	0x811a6f77	-2.8365305e-38
88	0x290ec434	3.1700513e-14
89	0xa7229794	-2.2564187e-15
90	0x0012e731	1.735975e-39
91	0x265ed122	7.730515e-16
92	0xa8c50f74	-2.1878095e-14
93	0x801e686f	-2.792529e-39
94	0xa7a2665b	-4.5075007e-15
95	0xa87c02b5	-1.3989397e-14
96	0x00047b5c	4.11595e-40
97	0x001c856e	2.61926e-39
98	0x000c123a	1.108564e-39
99	0x28a0287b	1.7781124e-14
100	0xa43447a0	-3.9091947e-17
101	0x8134174c	-3.3077493e-38
102	0xa83d6e33	-1.0515503e-14
103	0xa662f3a2	-7.8739685e-16
104	0x8027b0c9	-3.645003e-39
105	0xa7797ac0	-3.4622235e-15
106	0x2551018c	1.8128384e-16
107	0x003580fe	4.913555e-39
108	0x26d84d3e	1.5008947e-15
109	0x012f608c	3.2211693e-38
110	0xa4c705b0	-8.631213e-17
111	0x00052126	4.71069e-40
112	0xa9688ad4	-5.1634763e-14
113	0x1b1bbf78	1.2883166e-22
114	0xb197336d	-4.400525e-09
115	0x2516d05b	1.308102e-16
116	0x289e9138	1.7604502e-14
117	0x2616fc5a	5.2383704e-16
118	0x24705a10	5.211799e-17
119	0xa82626a3	-9.223229e-15
120	0xa8a770ab	-1.8589586e-14
121	0xa6d58da7	-1.4818239e-15
122	0xa89901ef	-1.698725e-14
123	0xa8359115	-1.0078978e-14
124	0x2865bf94	1.27535955e-14
125	0x2939c252	4.1246798e-14
126	0x28ba8605	2.070827e-14
127	0xa71c8b45	-2.1724847e-15
128	0x001606e7	2.022857e-39
129	0x11b51265	2.8568101e-28
130	0x802daf30	-4.195443e-39
131	0x22095550	1.8612126e-18
132	0x18ded840	5.760401e-24
133	0x248ddb8a	6.1520916e-17
134	0x11108cb0	1.140295e-28
135	0xa301882f	-7.021942e-18
136	0x000d2899	1.208425e-39
137	0x19da910c	2.2599256e-23
138	0xa5a1baf8	-2.8055743e-16
139	0x8017e2c6	-2.193567e-39
140	0x8037a166	-5.108851e-39
141	0x2538e484	1.603688e-16
142	0x24ae01ba	7.5463396e-17
143	0xa244a4e4	-2.6650246e-18
144	0x2606c7bb	4.6761274e-16
145	0x00238199	3.260733e-39
146	0x00305aac	4.440631e-39
147	0xa45a308b	-4.7312332e-17
148	0x817f35fd	-4.6874838e-38
149	0xa5219cd5	-1.4017661e-16
150	0x80631ef8	-9.102824e-39
151	0x1b740388	2.0184348e-22
152	0xa29ec3cf	-4.3033306e-18
153	0x1aca1c61	8.359109e-23
154	0x0035831a	4.914312e-39
155	0x80d88468	-1.9883966e-38
156	0xa6b23254	-1.2364873e-15
157	0x238bcc1b	1.5156852e-17
158	0x01c2f11e	7.161033e-38
159	0xa3272efc	-9.0630375e-18
160	0x24ba70ee	8.085595e-17
161	0x80375e78	-5.084841e-39
162	0x22f7ec83	6.71999e-18
163	0x0041c2a6	6.039134e-39
164	0xa595c6d1	-2.5982103e-16
165	0x257c47a5	2.188179e-16
166	0x002acc52	3.930387e-39
167	0x00352f6a	4.88429e-39
168	0xa5d3079c	-3.6607822e-16
169	0x2673bdbf	8.4564715e-16
170	0xa36a839c	-1.2713035e-17
171	0x199b3bee	1.605083e-23
172	0x8164f669	-4.2053777e-38
173	0x00239966	3.269271e-39
174	0x801e9afa	-2.81066e-39
175	0x91a796d2	-2.6440904e-28
176	0x8013aa9d	-1.806079e-39
177	0x25c1d083	3.3621456e-16
178	0xa1e31a24	-1.5389038e-18
179	0x00375949	5.082982e-39
180	0xa450f928	-4.5313854e-17
181	0x2319c9f3	8.336911e-18
182	0x99818a04	-1.3394031e-23
183	0x99767f7e	-1.2743649e-23
184	0x9125adb0	-1.3069727e-28
185	0x8b65a360	-4.4226705e-32
186	0x8a468938	-9.559161e-33
187	0x800318a1	-2.84342e-40
188	0x80118374	-1.60836e-39
189	0xa3e0db22	-2.4378935e-17
190	0x801bb522	-2.544537e-39
191	0x802795da	-3.635341e-39
192	0x2618def3	5.3037746e-16
193	0x0026c199	3.559199e-39
194	0x21a49310	1.1151999e-18
195	0x2658659c	7.507776e-16
196	0xa4f066d4	-1.04257606e-16
197	0x248d6be6	6.133179e-17
198	0x8077c1e0	-1.0997973e-38
199	0x001a1fd6	2.399143e-39
200	0x00278934	3.630804e-39
201	0x8181a0a6	-4.7617635e-38
202	0xa4385a48	-3.997511e-17
203	0x25c14076	3.3523844e-16
204	0x11d5b58a	3.3717357e-28
205	0x2491e458	6.3270555e-17
206	0xa4487560	-4.3467507e-17
207	0x0f734212	1.199355e-29
208	0x24cb3397	8.812461e-17
209	0x90451506	-3.8867595e-29
210	0x11b8b8e6	2.9144034e-28
211	0x240e7eca	3.0898736e-17
212	0x80489285	-6.664717e-39
213	0x8c98468b	-2.3461765e-31
214	0x00252c60	3.413832e-39
215	0x801dcbff	-2.73641e-39
216	0xa5229ce2	-1.4104414e-16
217	0xa462c200	-4.9170263e-17
218	0x001f9d29	2.903279e-39
219	0x9ef3ba60	-2.5805709e-20
220	0xa1f25ce5	-1.6423147e-18
221	0x002f1601	4.324162e-39
222	0xa20b49b2	-1.8877027e-18
223	0xa54252f0	-1.6854918e-16
224	0x000edcb7	1.364875e-39
225	0x002acb6e	3.930068e-39
226	0x000fa078	1.435098e-39
227	0x254a7ae6	1.7562347e-16
228	0x00385397	5.172774e-39
229	0x001bfe8b	2.570871e-39
230	0x99def5f0	-2.3053595e-23
231	0x8dbdd546	-1.1699368e-30
232	0x8033de34	-4.763322e-39
233	0x8f18dfef	-7.537307e-30
234	0xa1ac0f80	-1.1659276e-18
235	0x803ecea1	-5.767925e-39
236	0x237903eb	1.3499147e-17
237	0x8016ea7b	-2.104497e-39
238	0x8004472e	-3.92876e-40
239	0x011d251a	2.8862965e-38
240	0xa67ad1da	-8.7020576e-16
241	0x802d68b5	-4.170159e-39
242	0x242b4e70	3.7146153e-17
243	0x001fff6b	2.938527e-39
244	0x90e55ce6	-9.0467706e-29
245	0x0002cf37	2.58006e-40
246	0x0b80de94	4.9638705e-32
247	0x13320b35	2.2472284e-27
248	0x2270eeae	3.2652421e-18
249	0x25899f4c	2.3873655e-16
250	0xa5ef1122	-4.14715e-16
251	0x914451ad	-1.5486842e-28
252	0x1a0ec82d	2.9526612e-23
253	0x0ef280d4	5.9781663e-30
254	0x1a712c72	4.9873535e-23
255	0xa484b580	-5.755335e-17

bias f4 [100]
0	0x28a86fcb	1.870023e-14
1	0x250e8b63	1.2363763e-16
2	0x27943193	4.1132e-15
3	0x28c98544	2.2373278e-14
4	0xb035644e	-6.598996e-10
5	0xa8f17e4b	-2.6811146e-14
6	0xb817ea96	-3.621968e-05
7	0x272175f6	2.2407185e-15
8	0xa55bdc28	-1.9069814e-16
9	0x24850eec	5.7704834e-17
10	0x3e1977d5	0.14987119
11	0x3cb6e0fe	0.022324082
12	0xbd8b84c2	-0.06812431
13	0xbca7efd7	-0.020500107
14	0x3e3b30fa	0.18280402
15	0x3e1190f7	0.14215456
16	0x3e8afeb9	0.27147463
17	0xbc400624	-0.011720214
18	0x3d069c9c	0.032864198
19	0x3d13d293	0.03608949
20	0x39400789	0.00018313354
21	0x805ded12	-8.625746e-39
22	0x305850e7	7.869531e-10
23	0xba0e8c03	-0.00054377335
24	0xbb2a70c4	-0.0026007155
25	0x3b336770	0.0027374886
26	0x3a3d68aa	0.0007225374
27	0x002eb165	4.28807e-39
28	0x069abcc0	5.8205705e-35
29	0xb09bb2c1	-1.1328539e-09
30	0x3d19d203	0.0375538
31	0x3ca0cfc1	0.019630315
32	0xbe4bcf46	-0.19903287
33	0xbd10e435	-0.035373885
34	0x3e787036	0.24261555
35	0x3dc42edb	0.095792495
36	0x3e5355e7	0.20638238
37	0xbe024d6d	-0.12724848
38	0x3ccc8aa4	0.024968453
39	0x3da826e5	0.082105435
40	0x3d945435	0.07242624
41	0xbd9da18f	-0.076968305
42	0xbdc60bd4	-0.09670225
43	0xbbe0d2df	-0.0068610753
44	0x3e2b85e9	0.16750301
45	0x3e32e1b5	0.17468913
46	0x3de3db74	0.11125842
47	0xbce7999d	-0.02827149
48	0x3d250e53	0.040296864
49	0x3dbb3fb4	0.0914301
50	0x3df37feb	0.11889633
51	0x3a548c54	0.0008108069
52	0xbe571aad	-0.2100627
53	0xbd8cf04d	-0.06881771
54	0x3e472f3d	0.19451614
55	0x3dd62b71	0.104575045
56	0x3d8021fa	0.062564805
57	0xbe12daeb	-0.14341323
58	0xbd00f2fe	-0.031481735
59	0x3df2c15c	0.118532866
60	0x3d416f4c	0.04722528
61	0xbd82b4bb	-0.06382128
62	0xbe645bd4	-0.22300655
63	0x3e085536	0.13313755
64	0x3e912390	0.28347445
65	0x3d82b2bb	0.063817464
66	0x3e890d35	0.2676789
67	0xbddcdb8f	-0.10784065
68	0xbe19ef71	-0.15032746
69	0xbc657a15	-0.014006157
70	0x3e1e040c	0.15431231
71	0xbdae49e2	-0.08510186
72	0xbe708ad2	-0.23490456
73	0x3d16da71	0.036829416
74	0x3e7b597e	0.24545857
75	0x3dcdf89d	0.10057185
76	0x3e466d1b	0.19377558
77	0xbe134032	-0.14379957
78	0xbda2e434	-0.079536825
79	0x3b5f175c	0.0034041023
80	0x3e2f711a	0.17132989
81	0xbe4a54f6	-0.19758973
82	0xbe605114	-0.21905929
83	0xbe0c5104	-0.1370278
84	0x3e74247d	0.23842044
85	0xbd8b4b7c	-0.06801507
86	0x3e348496	0.17628703
87	0xbe865b16	-0.26241368
88	0xbe739ae9	-0.23789562
89	0x3dacd67f	0.084393494
90	0xbb999507	-0.004686955
91	0xbd9c6246	-0.07635932
92	0xbe89ebb2	-0.26937634
93	0x3bf91497	0.0076013315
94	0x3dfa53fe	0.122230515
95	0x3d0b57af	0.03401917
96	0x3e5aacb7	0.21354948
97	0xbdf4e0f5	-0.1195697
98	0x3ca43a55	0.020047346
99	0x3db2e9c4	0.087359935

bias f4 [10]
0	0x3e8d010c	0.2753986
1	0x3d426255	0.047457058
2	0xbf0ca5b0	-0.5494032
3	0xbf33ba0e	-0.7020577
4	0x3e488ee4	0.19585758
5	0xbf243fd1	-0.64159876
6	0x3f01300e	0.5046395
7	0x3d54e164	0.05197276
8	0xbe048c41	-0.12944128
9	0xbe0560f9	-0.13025273

weight f4 [10, 10]
0	0x27cd2e96	5.694944e-15
1	0x3e2b5d91	0.16734912
2	0x3a8b3f3c	0.0010623704
3	0xbe1511e7	-0.1455761
4	0x3b60ad42	0.0034282957
5	0xbe9f9a3b	-0.31172356
6	0x3edb10ca	0.42786247
7	0x3e254a65	0.1614166
8	0xbe4e96d6	-0.20174727
9	0x3c358bbe	0.01108068
10	0xaeae1cf7	-7.917749e-11
11	0xbdf7c9b2	-0.12099017
12	0xbb4dc6a0	-0.0031398907
13	0x3e1e2d07	0.15446864
14	0x3d9e2b74	0.07723132
15	0x3e298d2b	0.16557758
16	0x3ec7f937	0.39057323
17	0x3e9dad3f	0.3079624
18	0x3e4223ca	0.18958965
19	0x3d31b66b	0.043386858
20	0xb089c684	-1.0024483e-09
21	0x3e08c4b2	0.13356283
22	0x3ad0d031	0.0015931186
23	0x3ee47d93	0.44627056
24	0x3ed31b44	0.4123174
25	0x3eba3b19	0.36373213
26	0xbd17dac6	-0.037073873
27	0xbe8e0746	-0.27739924
28	0x3ebd9771	0.37029603
29	0x3e26bf61	0.16283943
30	0x305b8110	7.9855145e-10
31	0xbe4a6585	-0.19765289
32	0xbb92da92	-0.004481622
33	0xbe9d4c79	-0.30722407
34	0xbf02bbdb	-0.51067895
35	0x3e1fd70d	0.15609379
36	0xbef2f5d8	-0.4745319
37	0xbe9188aa	-0.2842458
38	0xbf39be9b	-0.72556466
39	0xbe8439f7	-0.25825474
40	0xb0132392	-5.3528837e-10
41	0x3e0b4d96	0.13603815
42	0xbab637b1	-0.0013902095
43	0xbeda30bc	-0.42615306
44	0xbe88881d	-0.26666346
45	0xbccc8498	-0.02496557
46	0x3cebf068	0.028801158
47	0x3d5da179	0.05410907
48	0xbedb6d17	-0.42856666
49	0xbed3ec29	-0.41391113
50	0x2928f325	3.7514388e-14
51	0xbe773d10	-0.24144387
52	0x3b3b0163	0.0028534762
53	0xbdbc10b8	-0.09182876
54	0x3eae8b4e	0.34090656
55	0x3e81a271	0.25319245
56	0xbe5101e0	-0.20410872
57	0x3dc4bd84	0.0960646
58	0x3cbc6206	0.02299596
59	0x3e371f82	0.17883113
60	0xb677af06	-3.6907745e-06
61	0xbe602a9e	-0.21891257
62	0x37ad9b6e	2.0695585e-05
63	0x3e376ca0	0.17912531
64	0xbe931456	-0.28726453
65	0xbe3c2653	-0.18373995
66	0xbba74159	-0.0051042256
67	0x3eb07850	0.3446679
68	0xbe6d34ba	-0.23164645
69	0x3d885e91	0.06658662
70	0xb1ae7e1d	-5.078404e-09
71	0x3ec22dc6	0.37925547
72	0xbb5783be	-0.003288492
73	0x3ea6d3cf	0.32583472
74	0xbd9416aa	-0.07230885
75	0x3ed43d00	0.4145279
76	0x3e7c3d4e	0.24632761
77	0x3ed9cb47	0.425379
78	0x3e9405e9	0.2891076
79	0xbd474f58	-0.048659652
80	0xa989661a	-6.101734e-14
81	0x3d0dd7a2	0.03462947
82	0xbae40ca4	-0.0017398787
83	0x3e84efce	0.25964206
84	0x3e7ad231	0.24494244
85	0x3e42b8fa	0.19015875
86	0xbdde7e5f	-0.10863947
87	0x3e675614	0.2259143
88	0x3f1c46a4	0.6104529
89	0x3c356d09	0.011073359
90	0x28290752	9.382972e-15
91	0xbed7bed3	-0.42137775
92	0xae09b402	-3.1310073e-11
93	0xbe50e1fd	-0.20398708
94	0xbe2345f9	-0.15944661
95	0xbe5d2f25	-0.21600015
96	0xbee06689	-0.43828228
97	0xbef87e7f	-0.4853401
98	0xbe551269	-0.20807804
99	0xbef17d26	-0.47165793

graph_embedding f4 [1, 11]
0	0x00000000	0.0
1	0x3fb2e769	1.3976871
2	0x3f794dc0	0.9738426
3	0x425b3c99	54.809177
4	0x00000000	0.0
5	0x4298b885	76.36039
6	0x00000000	0.0
7	0x3fe953c7	1.8228692
8	0x3fae30c0	1.3608627
9	0x00000000	0.0
10	0x4361618d	225.38106
